model/func_sin.pth (torch_old, 75208 bytes, 22 tensors)

fc1.weight f4 [100, 7]
-2.2765772 -1.4771212 0.20059596 0.09086896 0.09640467 0.29972625 -0.009723404 2.090801
-0.56877536 -0.1781122 -0.1261387 0.0065197963 -0.13586473 0.5627072 -3.195141 0.58017135
0.57705086 -0.061755393 -0.5163413 0.063536845 -0.038258605 -1.2362101 -1.2907517 -0.13360892
0.7743759 -1.0528178 0.07577666 0.550773 -0.66486526 -0.035970192 -1.259045 0.8001338
-0.27023348 -0.47630122 -0.033215303 0.03745627 -2.159762 0.7358413 -0.874093 -0.29441166
0.36646575 0.16803175 0.87510395 2.0501413 -0.08998079 0.55210936 -0.5714209 0.9912807
-0.30367532 3.3720057 0.03746123 -0.057133067 0.44286245 -0.6314496 0.84514034 -0.0044452553
-0.9810505 -0.6598673 -0.75445604 0.78984964 -0.030018488 0.21225707 0.038251314 1.8844343
-1.92642 0.44235963 -0.30504724 -0.33477646 0.422254 0.033256948 4.8773403 1.9007432
-0.1773458 -0.04109635 0.04445237 -0.66039157 0.023570566 0.24217238 0.7515287 0.29448104
0.0019299593 0.37353408 -0.14238712 0.27757293 -0.008230972 -1.7564619 -0.85033983 0.76132095
-0.20256616 0.15880877 -0.16408122 -4.109857 -1.0885483 -0.58436495 0.26098937 -0.32043284
-0.44433495 -0.0020674726 0.6346287 0.2484413 -0.7400746 0.69097877 -0.024593968 -0.6986279
-0.19417694 -1.6939372 2.996733 -0.038326878 0.3137334 -0.53702235 -0.55623233 0.3233676
-3.367554 -2.9678206 -0.26559734 0.34431064 -0.2945652 0.6041912 -0.017980436 1.6038184
2.3230195 0.5977777 -0.32261288 -0.6123485 -0.3312456 0.115068786 0.80278283 -2.3305929
0.6279684 -0.23343392 -0.1603893 0.25467592 -0.081557855 -0.16845533 0.5133583 0.29095525
0.4388349 -0.9400749 -0.30994487 0.20291471 -0.252707 -2.6636531 0.40087888 0.15440147
-0.41640908 0.35179856 -0.21105498 -1.5116603 0.20768459 -0.5057563 0.43705785 -0.67735636
0.018415095 0.038017064 0.8100256 0.9988582 0.052844524 0.6634973 -0.7799027 0.8567045
-0.34698907 0.8935506 -1.1512262 -0.90572715 0.58472776 -0.5721153 0.09907803 0.16122447
-0.11059198 -0.3584093 -0.9625149 0.97520536 0.08948817 0.1955046 -0.085468985 -0.55679286
1.9461687 0.5030537 -0.65914196 -0.023862818 -1.558706 0.047021676 2.3186467 0.7575624
-0.6003352 0.17505 -0.15657426 -0.14947897 -0.2618579 -3.779152 2.329798 -0.40784085
-0.31904745 -0.44280982 0.93395245 -0.052858643 -2.739666 0.6686124 -0.20982431 0.6838587
-0.61927617 -0.0591703 0.062535495 -4.0732 -1.0792154 0.124258116 0.05677119 -0.152829
-0.059711665 -0.04148731 -1.243744 -3.4357133 0.33898455 0.095032625 -0.2864405 0.5157172
0.00028900558 1.0826985 -1.9928029 -0.6641546 -0.08749791 -0.07782907 -0.98538697 0.22032262
0.40038458 0.25532007 -0.6783212 0.8280451 -0.22040285 1.1187149 -0.104915775 0.84112257
1.0329902 0.9627928 -1.3959422 0.020380564 -0.66225755 -0.06017009 3.2759228 0.6320245
-0.2619061 0.8271559 -0.6238817 0.32911646 0.019715842 0.4380862 0.40330932 -0.8759031
0.8883177 -0.043008994 0.20154536 -0.05062714 1.0838342 1.0237672 -0.060674798 -0.16400568
00000000: 71b3 11c0 4f12 bdbf 0769 4d3e 8119 ba3d
00000010: d06f c53d b875 993e ea4e 1fbc afcf 0540
00000020: 439b 11bf 0b63 36be 812a 01be 04a4 d53b
00000030: 2020 0bbe 940d 103f 317d 4cc0 1c86 143f
00000040: 9bb9 133f 39f3 7cbd f22e 04bf 9b1f 823d
00000050: 0eb5 1cbd 223c 9ebf 5a37 a5bf c7d0 08be
00000060: 803d 463f bcc2 86bf cb30 9b3d 76ff 0c3f
00000070: 9c34 2abf 7b55 13bd 6328 a1bf 92d5 4c3f
00000080: 0b5c 8abe c1dd f3be c50c 08bd bf6b 193d
00000090: 8a39 0ac0 1860 3c3f 8fc4 5fbf 20bd 96be
000000a0: 66a1 bb3e 8410 2c3e d006 603f 8435 0340
000000b0: d947 b8bd 0a57 0d3f a448 12bf 92c4 7d3f
000000c0: 557b 9bbe f1ce 5740 f270 193d 5d04 6abd
000000d0: debe e23e aea6 21bf 1e5b 583f 81a9 91bb
000000e0: 2026 7bbf 10ed 28bf 0824 41bf 9633 4a3f
000000f0: 55e9 f5bc eb59 593e 69ad 1c3d 2535 f13f
00000100: ee94 f6bf f67c e23e 272f 9cbe d267 abbe
00000110: ad31 d83e 7038 083d 2c13 9c40 8e4b f33f
00000120: 239a 35be a554 28bd b013 363d 6c0f 29bf
00000130: 0f17 c13c 09fc 773e 2f64 403f 38c6 963e
00000140: b0f6 fc3a dc3f bf3e eecd 11be 0a1e 8e3e
00000150: 33db 06bc bed3 e0bf dfaf 59bf eee5 423f
00000160: 816d 4fbe c49e 223e e804 28be f383 83c0
00000170: 8d55 8bbf f198 15bf 66a0 853e c60f a4be
00000180: df7f e3be 6f7e 07bb 0777 223f 6567 7e3e
00000190: 8775 3dbf fce3 303f 4a79 c9bc 47d9 32bf
000001a0: 52d6 46be efd2 d8bf 79ca 3f40 a5fc 1cbd
000001b0: aaa1 a03e 4c7a 09bf 3e65 0ebf 7090 a53e
000001c0: 0186 57c0 c6f0 3dc0 60fc 87be 7c49 b03e
000001d0: 40d1 96be 46ac 1a3f b54b 93bc ec49 cd3f
000001e0: 5aac 1440 f607 193f 842d a5be dfc2 1cbf
000001f0: 0699 a9be 2fa9 eb3d 2d83 4d3f 6f28 15c0
00000200: 89c2 203f 4d09 6fbe 183d 24be e264 823e
00000210: ce07 a7bd 8e7f 2cbe 736b 033f 16f8 943e
00000220: f8ae e03e c0a8 70bf 18b1 9ebe e0c8 4f3e
00000230: d062 81be 4b79 2ac0 ff3f cd3e 6b1b 1e3e
00000240: 9233 d5be f11e b43e cc1e 58be 167e c1bf
00000250: 45ab 543e 3f79 01bf 0cc6 df3e 3a67 2dbf
00000260: 41db 963c c8b7 1b3d d65d 4f3f 2cb5 7f3f
00000270: 8073 583d f6da 293f b4a7 47bf fc50 5b3f
00000280: 8da8 b1be bbbf 643f 615b 93bf bcdd 67bf
00000290: b8b0 153f 2676 12bf 6ce9 ca3d 0718 253e
000002a0: 0c7e e2bd 6c81 b7be 6067 76bf 0fa7 793f
000002b0: 9345 b73d 5c32 483e 5d0a afbd fa89 0ebf
000002c0: 0e1c f93f 21c8 003f 87bd 28bf f57b c3bc
000002d0: ae83 c7bf cd99 403d b564 1440 9cef 413f
000002e0: 91af 19bf 4f40 333e 0155 20be 0411 19be
000002f0: 3d12 86be a0dd 71c0 691b 1540 84d0 d0be
00000300: 305a a3be f8b7 e2be 8217 6f3f 4e82 58bd
00000310: b056 2fc0 2f2a 2b3f 2fdc 56be 5d11 2f3f
00000320: e288 1ebf 8e5c 72bd 9c12 803d a857 82c0
00000330: bb23 8abf 0a7b fe3d e888 683d 357f 1cbe
00000340: 3894 74bd 99ee 29bd 0133 9fbf bae2 5bc0
00000350: 628f ad3e 77a0 c23d 54a8 92be 0b06 043f
00000360: ac85 9739 dd95 8a3f 2a14 ffbf 0906 2abf
00000370: 1b32 b3bd d964 9fbd 5242 7cbf 419c 613e
00000380: 35ff cc3e 50b9 823e 75a6 2dbf c4fa 533f
00000390: 49b1 61be 0d32 8f3f 15de d6bd cf53 573f
000003a0: 0639 843f 9779 763f 3cae b2bf 24f5 a63c
000003b0: b689 29bf ea74 76bd b8a8 5140 5ccc 213f
000003c0: 8e18 86be 7dc0 533f b6b6 1fbf f481 a83e
000003d0: 1e83 a13c d64c e03e 8f7e ce3e 303b 60bf
000003e0: ca68 633f 332a 30bd e861 4e3e 675e 4fbd
000003f0: 14bb 8a3f ce0a 833f 2386 78bd 1bf1 27be

fc1.bias f4 [100]
-0.9146811 -0.709937 -0.41439128 -0.69897217 -0.14029339 0.12682974 -0.33443454 -0.9393472
0.3021301 0.07547798 -0.16265333 -0.56189287 0.008692956 -0.109098844 0.002011508 -0.46470916
-0.088513784 0.27497005 -0.46109763 -0.38427183 -0.2994968 -1.464144 -0.48859766 -0.43081522
0.0133036645 0.23448455 -0.26511502 -0.38471973 0.12667948 0.024324482 -0.40744403 -1.052391
-1.2792394 -0.29374656 -0.60729146 0.10276517 -0.8132941 0.09950332 -0.35134074 -1.319839
0.3825622 -0.039392814 -0.5249066 -0.5459274 -0.7675346 -0.97553205 -0.69966316 -0.5114291
-0.26722157 -1.10851 0.029734652 -0.84613 -0.5512555 -0.035941437 -0.32065356 0.4118859
0.19376664 -0.37756327 -0.21847743 -0.29209465 -0.26861662 -1.193189 -0.0855137 -0.106067695
-0.2331348 -0.5265338 -0.3354793 -0.6846131 0.33833534 -0.48860595 -0.25634834 -0.12887932
-0.7749739 -0.56495243 -0.2879721 -0.7786582 -0.3292853 0.16921815 -0.24388045 -0.46988598
0.421137 -0.5523052 -0.42505017 -0.32017285 -0.094123006 0.21088004 -0.3013621 -0.90504986
-1.1108431 -0.77964854 0.11243221 -0.64416325 -0.22403124 -0.12171959 -0.55695784 0.069823205
-0.43655834 -0.98232406 -0.25260457 -0.4728381
00000000: 8a28 6abf 6ebe 35bf 182b d4be d7ef 32bf
00000010: 12a9 0fbe a8df 013e 013b abbe 0f79 70bf
00000020: ccb0 9a3e 3394 9a3d 988e 26be 36d8 0fbf
00000030: e66c 0e3c 376f dfbd 81d3 033b 5cee edbe
00000040: b746 b5bd e0c8 8c3e fd14 ecbe 47bf c4be
00000050: a557 99be 1269 bbbf 7929 fabe d093 dcbe
00000060: 9df7 593c b81c 703e 28bd 87be fcf9 c4be
00000070: 44b8 013e 2344 c73c 819c d0be c0b4 86bf
00000080: 1ebe a3bf f365 96be 7477 1bbf 8c76 d23d
00000090: 0b34 50bf 66c8 cb3d efe2 b3be 7cf0 a8bf
000000a0: 31df c33e 5c5a 21bd 4760 06bf e6c1 0bbf
000000b0: 267d 44bf 78bc 79bf 201d 33bf 04ed 02bf
000000c0: 44d1 88be a8e3 8dbf 1696 f33c fa9b 58bf
000000d0: 151f 0dbf 5437 13bd b42c a4be b5e2 d23e
000000e0: c36a 463e f94f c1be 8cb8 5fbe 6e8d 95be
000000f0: 1e88 89be 6bba 98bf cf21 afbd 053a d9bd
00000100: e4ba 6ebe ebca 06bf f1c3 abbe ce42 2fbf
00000110: 4a3a ad3e 8f2a fabe 1740 83be f1f8 03be
00000120: b164 46bf b9a0 10bf 1471 93be 2556 47bf
00000130: 1598 a8be 8647 2d3e ccbb 79be e594 f0be
00000140: 459f d73e e063 0dbf 2da0 d9be b2ed a3be
00000150: 90c3 c0bd f0f0 573e 224c 9abe 59b1 67bf
00000160: 1b30 8ebf 0c97 47bf dc42 e63d e2e7 24bf
00000170: 7268 65be 1f48 f9bd ca94 0ebf 78ff 8e3d
00000180: 9384 dfbe 9779 7bbf 6355 81be d617 f2be

fc2.weight f4 [50, 100]
-0.41829833 1.5745066 -0.8698601 0.8969271 -1.1975107 0.8684776 -0.3677715 0.089719325
-1.5956228 -0.23284 0.83865684 0.8331567 -0.33554924 1.161136 0.7721587 0.14277776
0.1589091 0.791774 -1.0028484 0.5696199 -0.44045982 0.33958304 -0.16218793 0.19599326
-1.81715 0.6396417 0.14531617 -0.18158238 0.00623177 0.4617361 1.2190499 -0.08656093
-0.5973647 0.5193509 1.2110299 -1.6677319 0.3562881 -1.755212 0.35909173 -0.44130877
0.51214975 0.3118065 0.26607096 -1.6416098 -0.49649233 -0.6034069 0.071990006 0.3821962
-0.29768118 1.0709952 0.3446509 -1.0436109 -0.5817931 0.49156007 -0.6234416 0.27110314
0.6283121 0.36014616 -0.044842824 0.35255724 0.113831 1.227997 0.16341107 -0.50426906
-0.3597947 -0.43615752 0.44803664 0.9395026 0.74032056 -0.53583646 -0.29823652 0.5729867
-1.2519346 1.0221881 -0.22713771 -0.14478143 -0.23070733 -0.1950096 1.049107 0.33524528
0.5861963 -1.8159192 -1.439391 -0.02333067 0.35470718 0.062279902 0.5912758 0.68686116
-0.20902236 0.27914217 0.24101871 0.7127307 0.36900064 0.066936456 0.7177823 -0.19449086
-0.26976615 0.4349941 0.14075294 -1.6122712 1.4813502 0.5746609 0.8475894 0.40040526
-1.2204099 -0.91787094 1.1759533 -0.040518288 0.017661957 0.9424983 1.1742084 -0.4376188
-0.122874305 -0.06925069 0.3334479 0.69152594 -0.57995886 0.36109975 0.36948904 -0.48099074
-0.7921882 0.16990332 0.45746616 0.44883117 -0.021757187 0.28491026 0.07669372 0.6420703
0.040070042 0.1002078 0.25575832 -0.08958602 1.2669154 0.3397511 -0.30759332 0.7074943
0.8664466 0.5666924 -1.237702 1.0087843 0.21312745 0.89794177 -0.06522267 1.0592647
0.71734506 0.16619575 -1.6400583 -0.190295 0.79999363 0.19745027 0.04139856 1.9120764
-1.7122338 -1.3594856 -0.4128974 -0.0858279 0.74653804 0.44288644 -0.11006102 1.2623636
0.94672346 0.33181584 0.687196 -1.3370154 0.21494511 -1.2652872 0.99581206 1.2511208
0.98081267 0.89445543 0.6072321 -0.8624318 1.1633369 0.07431717 -0.48476237 -0.34784102
0.9278845 -0.6788028 -0.49566418 -0.71508795 -0.7958765 -0.51405996 -0.8994481 1.2264385
0.1965421 0.18756637 0.08562898 -0.473639 -0.29907772 0.30374977 -0.0059940014 -0.56134784
0.5868203 -0.6336806 -0.13360587 -0.30118394 -0.6690415 0.7231376 0.89882517 0.9577723
1.0081302 0.68489486 0.6100463 0.11796795 -0.614177 -0.3885569 0.03326133 1.3057152
-0.9662379 -0.99448955 -0.27737227 1.1271383 0.6534575 1.3376375 -0.78636837 -0.13929465
-0.50334615 0.6865186 -0.3191856 -0.08611943 -0.6779735 0.7194369 0.15680462 0.48291963
0.46801287 -0.11382722 0.524422 0.5358321 -1.1509254 -0.797806 -1.2302959 0.64759755
-0.37127647 -1.5609512 0.26679718 -0.15647645 -0.1068126 0.83801156 0.054230686 0.28478128
0.05708553 -0.50362664 0.54236424 0.6015073 0.7583305 0.01613978 -1.0075057 -0.41422892
-0.51173574 0.49805477 0.6096448 0.6355128 0.48461685 0.5547388 1.1579983 -0.061658036
00000000: 332b d6be 6f89 c93f 27af 5ebf 049d 653f
00000010: 0848 99bf 8c54 5e3f 8c4c bcbe c4be b73d
00000020: 5e3d ccbf 9c6d 6ebe 37b2 563f c249 553f
00000030: 1ccd abbe 1ba0 943f 31ac 453f 5534 123e
00000040: 11b9 223e b3b1 4a3f 565d 80bf 9cd2 113f
00000050: f383 e1be d4dd ad3e 9814 26be 75b2 483e
00000060: 5f98 e8bf 8fbf 233f c3cd 143e bbf0 39be
00000070: e033 cc3b ad68 ec3e d409 9c3f db46 b1bd
00000080: e5ec 18bf 2ef4 043f 0703 9b3f 3d78 d5bf
00000090: 656b b63e c9aa e0bf dfda b73e 39f3 e1be
000000a0: 3f1c 033f 1aa5 9f3e 743a 883e 4520 d2bf
000000b0: 3e34 febe e078 1abf 7f6f 933d 38af c33e
000000c0: ab69 98be 5f16 893f 1576 b03e 0b95 85bf
000000d0: 65f0 14bf c3ad fb3e de99 1fbf 08ce 8a3e
000000e0: 10d9 203f 1465 b83e 1cad 37bd 6282 b43e
000000f0: 3a20 e93d 012f 9d3f 3b55 273e c717 01bf
00000100: 0337 b8be 0a50 dfbe 0f65 e53e 3e83 703f
00000110: a685 3d3f 942c 09bf 75b2 98be 42af 123f
00000120: 653f a0bf 0fd7 823f ca96 68be 9541 14be
00000130: 8b3e 6cbe 99b0 47be 2349 863f 45a5 ab3e
00000140: f610 163f 0a70 e8bf f73d b8bf f61f bfbc
00000150: 2e9c b53e 3619 7f3d da5d 173f 22d6 2f3f
00000160: f509 56be b9eb 8e3e 9ccd 763e 8575 363f
00000170: a7ed bc3e fb15 893d 95c0 373f 9d28 47be
00000180: ca1e 8abe 8cb7 de3e 8a21 103e e75e cebf
00000190: e29c bd3f fa1c 133f 9efb 583f eb01 cd3e
000001a0: 6436 9cbf 97f9 6abf a385 963f 81f6 25bd
000001b0: cfaf 903c 9247 713f 764c 963f 920f e0be
000001c0: 86a5 fbbd 4ed3 8dbd afb9 aa3e d807 313f
000001d0: 2f78 14bf 11e2 b83e ab2d bd3e 6b44 f6be
000001e0: d9cc 4abf 23fb 2d3e 0139 ea3e 33cd e53e
000001f0: 213c b2bc c2df 913e 9911 9d3d b85e 243f
00000200: 7c20 243d bf39 cd3d c1f2 823e e078 b7bd
00000210: 492a a23f dbf3 ad3e df7c 9dbe 591e 353f
00000220: 72cf 5d3f c112 113f 056d 9ebf d81f 813f
00000230: 153e 5a3e 83df 653f 7793 85bd fc95 873f
00000240: eda3 373f 382f 2a3e 6eed d1bf b1dc 42be
00000250: 62cc 4c3f 6730 4a3e 8991 293d ebbe f43f
00000260: 7a2a dbbf a003 aebf 4a67 d3be 8ac6 afbd
00000270: 1e1d 3f3f 03c2 e23e ac67 e1bd 2195 a13f
00000280: 785c 723f c4e3 a93e 14ec 2f3f 5223 abbf
00000290: 921a 5c3e eef4 a1bf 8aed 7e3f ba24 a03f
000002a0: 8a16 7b3f 08fb 643f 9073 1b3f 55c8 5cbf
000002b0: 39e8 943f 9a33 983d c632 f8be 3818 b2be
000002c0: d789 6d3f 05c6 2dbf b2c7 fdbe 0110 37bf
000002d0: 90be 4bbf 6f99 03bf 3b42 66bf f0fb 9c3f
000002e0: 5542 493e 6611 403e 3f5e af3d d080 f2be
000002f0: b720 99be 1785 9b3e 5469 c4bb 7eb4 0fbf
00000300: db39 163f e438 22bf facf 08be c834 9abe
00000310: 4e46 2bbf 8c1f 393f 6819 663f 9130 753f
00000320: 690a 813f 4555 2f3f ff2b 1c3f 2e99 f13d
00000330: b43a 1dbf eef0 c6be 083d 083d ad21 a73f
00000340: 5e5b 77bf de96 7ebf bd03 8ebe 1146 903f
00000350: fe48 273f b537 ab3f 704f 49bf 42a3 0ebe
00000360: 4bdb 00bf afbf 2f3f 4c6c a3be 625f b0bd
00000370: ac8f 2dbf 042d 383f 6491 203e 3e41 f73e
00000380: 629f ef3e 3f1e e9bd 8540 063f 4b2c 093f
00000390: 8651 93bf 043d 4cbf 567a 9dbf f4c8 253f
000003a0: f317 bebe 40cd c7bf a499 883e 5d3b 20be
000003b0: 90c0 dabd ed87 563f ff20 5e3d dace 913e
000003c0: 84d2 693d aded 00bf 62d8 0a3f 62fc 193f
000003d0: f321 423f 9237 843c f2f5 80bf d015 d4be
000003e0: 1d01 03bf 0901 ff3e ae11 1c3f f8b0 223f
000003f0: b31f f83e 5d03 0e3f 4a39 943f 238d 7cbd

fc2.bias f4 [50]
0.011941697 -0.08954371 -0.12315536 -0.08198933 -0.078597344 0.27373382 0.24572188 -0.3653826
-0.11736381 0.41694966 0.019444657 -0.10025939 -1.1063807 -0.2065398 -0.011622756 -1.1212747
-0.39857966 -1.4619335 -0.050208647 -0.9954542 -0.9120716 -0.93017966 -0.07987536 -0.050101016
0.5905681 0.16838002 0.48976305 0.39433166 -0.011414194 0.05241076 -0.16621868 -0.009142439
0.28556076 0.34761608 0.22631983 0.3206036 -1.2284232 0.1817649 -1.0927308 0.33819422
0.2538669 0.36169198 -0.58599615 0.0556977 0.3835706 0.2848085 -0.31424344 -0.95894533
-0.16910301 -0.5644985
00000000: 1ca7 433c b162 b7bd e138 fcbd 06ea a7bd
00000010: a5f7 a0bd d726 8c3e 849e 7b3e 6e13 bbbe
00000020: 705c f0bd 6d7a d53e 674a 9f3c cc54 cdbd
00000030: e29d 8dbf 2b7f 53be 5f6d 3ebc ee85 8fbf
00000040: a212 ccbe a320 bbbf 95a7 4dbd 16d6 7ebf
00000050: 867d 69bf 4120 6ebf b195 a3bd b936 4dbd
00000060: 792f 173f d06b 2c3e 39c2 fa3e d7e5 c93e
00000070: 9902 3bbc aaac 563d 3b35 2abe 2bca 15bc
00000080: 0535 923e bcfa b13e 63c0 673e 2826 a43e
00000090: f93c 9dbf 9420 3a3e 9ade 8bbf cb27 ad3e
000000a0: d8fa 813e b12f b93e d803 16bf 4523 643d
000000b0: 5e63 c43e 6bd2 913e 84e4 a0be 717d 75bf
000000c0: 5729 2dbe f982 10bf

out.weight f4 [4, 50]
0.010312382 0.3235269 -0.71330696 -0.30419123 0.44352505 0.21987638 0.14474268 2.1442738
0.7866607 -0.1594942 0.44268465 -0.5074528 0.37188405 -0.50548196 0.3922545 -2.333069
0.16529444 -1.184082 -0.07473271 -0.55577135 0.62192875 -1.894454 0.57627434 -0.0099845035
-0.49821806 0.30232722 0.11022238 0.015790114 -0.23761158 0.596569 -0.73444724 0.24747871
-0.49009487 -0.36036137 -0.07246637 -0.4788399 0.80035406 0.32684734 -0.2382801 -0.21640918
0.43980724 0.17649013 -1.2230188 0.49396008 0.57346356 0.14917412 0.38882715 2.2063568
0.0712678 1.0742286 0.8862084 -0.1535523 -0.7738531 0.36004674 -0.13895616 -0.9528692
0.06713057 0.8108626 0.6733544 -0.16413514 0.58665437 0.6026242 1.0916119 -0.6831568
-0.4309602 0.37415838 0.25327805 -1.7380112 0.044872064 1.5476364 0.5059499 -0.97296077
0.46485722 0.32355744 -0.43551144 0.3351864 -0.14954364 -0.043958057 -0.034616366 -0.07777559
0.022123918 0.47407135 -0.33163282 -0.27766973 -0.72219765 0.036377225 0.3879583 -0.16439775
-0.87014735 0.07695559 0.58372486 -0.4691215 -0.544156 -0.92475426 -0.27064934 -0.0018620944
-0.011418536 -0.3097891 0.049591683 1.4139507 0.28027385 0.18393044 -0.64963573 0.019142095
-0.7775771 0.72252476 -0.38284704 1.5858132 0.9438946 -0.35175627 0.012944109 -0.26541767
0.6530558 -0.11670902 -0.25251666 -0.88482845 0.48518974 1.7080644 0.14520128 -1.3006295
1.6673366 0.70597124 -0.3087415 -1.0513042 -0.036431942 -0.046850502 -0.053235453 -0.49563843
0.62306076 -0.30208623 0.986281 0.33614624 -0.2545966 0.4833848 0.018626872 0.031271294
-0.3519382 0.087175705 -2.1855783 -0.31763566 1.4304391 0.08988109 0.11221928 -0.83847284
-1.3552642 0.65130085 -0.57340217 0.72168785 -0.17794506 -1.1716391 0.26904345 0.8335983
-0.111217 -1.0419065 0.024251081 -1.2277986 0.2843257 0.1174395 -3.0927548 0.78558654
0.086509235 0.083073184 -1.1770855 -0.27809137 -0.30838034 0.22632907 0.1656331 0.6134862
-0.49626943 1.0410017 1.2359641 1.3207113 0.6793493 0.22261237 0.54945385 -1.7288231
-0.30256167 -0.506487 0.9699092 0.6093982 0.05677462 -0.016916592 -0.1665096 0.23704876
0.56263405 -0.8169369 0.63606167 -0.2083494 -0.016350504 0.3415644 -0.78059286 -0.19565578
0.8265106 -0.09659003 0.46072856 0.7582907 -0.10973997 -0.37230667 -0.90217596 -0.5076629
00000000: 44f5 283c 51a5 a53e 499b 36bf f4be 9bbe
00000010: b715 e33e 4627 613e 6d37 143e c83b 0940
00000020: 9862 493f 7352 23be 90a7 e23e 6de8 01bf
00000030: 9667 be3e 4467 01bf 95d5 c83e 0151 15c0
00000040: f242 293e 0090 97bf 770d 99bd 0847 0ebf
00000050: b936 1f3f 787d f2bf b786 133f 0b96 23bc
00000060: 7016 ffbe a2ca 9a3e 45bc e13d 455a 813c
00000070: 7350 73be bfb8 183f bc04 3cbf 0f6b 7d3e
00000080: b7ed fabe 4981 b8be 4069 94bd 812a f5be
00000090: 01e4 4c3f 8958 a73e b3ff 73be 5e9a 5dbe
000000a0: 6a2e e13e d4b9 343e e18b 9cbf 56e8 fc3e
000000b0: 82ce 123f 1ac1 183e 5a14 c73e f334 0d40
000000c0: daf4 913d 5380 893f 8ede 623f d03c 1dbe
000000d0: 3d1b 46bf 0c58 b83e 864a 0ebe 3cef 73bf
000000e0: c17b 893d b194 4f3f f460 2c3f 0b13 28be
000000f0: fb2e 163f 9445 1a3f f0b9 8b3f 5de3 2ebf
00000100: d1a6 dcbe b091 bf3e a9ad 813e 2777 debf
00000110: c5cb 373d f318 c63f ef85 013f f513 79bf
00000120: c401 ee3e 52a9 a53e 5bfb debe 8d9d ab3e
00000130: f821 19be 5d0d 34bd e4c9 0dbd cf48 9fbd
00000140: 383d b53c 7bb9 f23e c7cb a9be ba2a 8ebe
00000150: f2e1 38bf 4900 153d 78a2 c63e e257 28be
00000160: fac1 5ebf e49a 9d3d fe6e 153f b130 f0be
00000170: cf4d 0bbf b2bc 6cbf 8d92 8abe 8511 f4ba
00000180: d014 3bbc ad9c 9ebe a620 4b3d 56fc b43f
00000190: 0e80 8f3e 4358 3c3e 874e 26bf e2cf 9c3c
000001a0: 4b0f 47bf 62f7 383f 8704 c4be edfb ca3f
000001b0: 14a3 713f 6619 b4be 8713 543c d3e4 87be
000001c0: aa2e 273f 2405 efbd dd49 81be 1e84 62bf
000001d0: ca6a f83e dba1 da3f a5af 143e 077b a6bf
000001e0: 496b d53f 88ba 343f 5e13 9ebe 2391 86bf
000001f0: a939 15bd 50e6 3fbd 6b0d 5abd 52c4 fdbe
00000200: e980 1f3f 0cab 9abe e97c 7c3f 5c1b ac3e
00000210: 7c5a 82be 367e f73e 6297 983c 5416 003d
00000220: 3e31 b4be 2d89 b23d 84e0 0bc0 24a1 a2be
00000230: a118 b73f 9413 b83d 39d3 e53d 28a6 56bf
00000240: 4c79 adbf a7bb 263f 7cca 12bf 89c0 383f
00000250: 3b37 36be 45f8 95bf 10c0 893e b366 553f
00000260: bdc5 e3bd 315d 85bf 34aa c63c 8128 9dbf
00000270: 2393 913e 1f84 f03d b2ef 45c0 331c 493f
00000280: c12b b13d 4622 aa3d bdaa 96bf fe61 8ebe
00000290: 07e4 9dbe cfc2 673e b99b 293e 6e0d 1d3f
000002a0: 0717 febe 8b3f 853f 1234 9e3f 110d a93f
000002b0: d6e9 2d3f 7ff4 633e 02a9 0c3f 134a ddbf
000002c0: 5de9 9abe 22a9 01bf f84b 783f 8501 1c3f
000002d0: 818c 683d aa94 8abc 7e81 2abe e9bc 723e
000002e0: c908 103f c722 51bf f0d4 223f 8c59 55be
000002f0: 7ef1 85bc 87e1 ae3e efd4 47bf fd59 48be
00000300: 3396 533f fed0 c5bd 9de4 eb3e 571f 423f
00000310: 59bf e0bd fb9e bebe 01f5 66bf 32f6 01bf

out.bias f4 [4]
-0.074340686 -0.018121673 0.08810645 0.3251426
00000000: ee3f 98bd e773 94bc 2871 b43d 1779 a63e

fc1.weight f4 [100, 7]
-2.276578 -1.4771296 0.20059738 0.090869226 0.096405014 0.2997267 -0.009723343 2.0908256
-0.56878084 -0.178113 -0.12613957 0.006519846 -0.1358637 0.5627131 -3.195134 0.58017135
0.57704806 -0.061755497 -0.5163466 0.06353749 -0.038258582 -1.2362075 -1.2907459 -0.13360915
0.7743754 -1.0528276 0.075777315 0.5507683 -0.66519684 -0.036419414 -1.2596991 0.79946196
-0.26948565 -0.4734087 -0.032700215 0.037159726 -2.1594806 0.7357471 -0.8741345 -0.29470244
0.36829817 0.16919129 0.87304264 2.0461025 -0.092636466 0.54938036 -0.57431895 0.991787
-0.30871898 3.3720167 0.037461367 -0.057133153 0.44286147 -0.6314552 0.8451381 -0.0044452306
-0.9804895 -0.6588923 -0.7537973 0.7904404 -0.02960353 0.21294771 0.039552756 1.8859072
-1.92625 0.442797 -0.30448723 -0.33467075 0.41554555 0.038631137 4.876878 1.8998215
-0.1774784 -0.041206308 0.044541344 -0.6523185 0.023487661 0.24304056 0.7537331 0.2961025
0.0036174823 0.3754686 -0.14401019 0.28097913 -0.009132427 -1.7562698 -0.85118264 0.7604623
-0.2018983 0.1558534 -0.16234443 -4.1073856 -1.0892797 -0.58563244 0.2597273 -0.31941473
-0.44434783 -0.00028975328 0.6338408 0.2491173 -0.7401607 0.6908279 -0.024624078 -0.7002272
-0.19617054 -1.6939359 2.9967453 -0.038326755 0.31373382 -0.5370175 -0.556234 0.3233689
-3.3675582 -2.9678252 -0.26560003 0.34430808 -0.29456496 0.60419196 -0.017980596 1.6023223
2.3226516 0.5980807 -0.32227945 -0.6119614 -0.33020076 0.11366788 0.80278885 -2.3305798
0.6279684 -0.2334351 -0.16038807 0.25467452 -0.08155749 -0.1714754 0.5108203 0.28863204
0.43646196 -0.94206077 -0.30971897 0.196785 -0.25272542 -2.6612837 0.4020929 0.15563932
-0.4151405 0.3512466 -0.21138015 -1.5116646 0.20768587 -0.5057608 0.43705595 -0.6773627
0.018414967 0.03801718 0.8106969 1.0002766 0.055177417 0.6657795 -0.7776935 0.85026497
-0.35077468 0.893549 -1.1512232 -0.90573215 0.58473104 -0.5721187 0.099077545 0.1612255
-0.11064865 -0.35797226 -0.9624002 0.9752515 0.089752026 0.19644439 -0.08442476 -0.5558493
1.943727 0.50187254 -0.6602663 -0.024260106 -1.5522025 0.04369599 2.317725 0.75813967
-0.6004837 0.17489666 -0.15676402 -0.14711376 -0.2632913 -3.7774448 2.3294222 -0.4079356
-0.31916898 -0.44252717 0.92718154 -0.054415267 -2.7382553 0.6683717 -0.20924374 0.68438447
-0.6189521 -0.043660313 0.062251657 -4.0739636 -1.0802104 0.12212674 0.054680668 -0.15499957
-0.052998055 -0.042912472 -1.2437415 -3.435722 0.33898237 0.095032625 -0.28644082 0.5157148
0.00028900857 1.0834652 -1.9937291 -0.66482794 -0.08815119 -0.07712421 -0.9804128 0.21372445
0.40038416 0.2553212 -0.6783223 0.82804346 -0.22040403 1.1187265 -0.10491583 0.84318244
1.0306486 0.9619276 -1.3967588 0.021308623 -0.6577847 -0.058868762 3.275934 0.6320274
-0.26190457 0.82716125 -0.62387943 0.32911777 0.019716024 0.43754768 0.40318778 -0.87590605
0.8882419 -0.043104395 0.20331703 -0.049706817 1.083834 1.0237645 -0.060674794 -0.16400458
00000000: 74b3 11c0 9512 bdbf 6669 4d3e a519 ba3d
00000010: fe6f c53d c775 993e a84e 1fbc 16d0 0540
00000020: 9f9b 11bf 4163 36be bb2a 01be 6fa4 d53b
00000030: db1f 0bbe f70d 103f 137d 4cc0 1c86 143f
00000040: 6cb9 133f 55f3 7cbd 4a2f 04bf f21f 823d
00000050: 08b5 1cbd 0c3c 9ebf 2937 a5bf d6d0 08be
00000060: 773d 463f 0ec3 86bf 2331 9b3d 27ff 0c3f
00000070: 574a 2abf 862c 15bd d23d a1bf 8aa9 4c3f
00000080: 06fa 89be a062 f2be a9f0 05bd cc34 183d
00000090: ee34 0ac0 ec59 3c3f 47c7 5fbf 3de3 96be
000000a0: 9491 bc3e 7b40 2d3e b97f 5f3f 58f3 0240
000000b0: 30b8 bdbd 31a4 0c3f 9106 13bf c1e5 7d3f
000000c0: 6a10 9ebe 1fcf 5740 1771 193d 7404 6abd
000000d0: bdbe e23e 0ca7 21bf f85a 583f 4ca9 91bb
000000e0: 5c01 7bbf 2aad 28bf dcf8 40bf 4d5a 4a3f
000000f0: 1a83 f2bc f70e 5a3e 1202 223d 6865 f13f
00000100: 5c8f f6bf 4ab6 e23e c0e5 9bbe f759 abbe
00000110: 63c2 d43e af3b 1e3d 620f 9c40 5a2d f33f
00000120: e6bc 35be f2c7 28bd fc70 363d 58fe 26bf
00000130: 3269 c03c a0df 783e a7f4 403f bf9a 973e
00000140: 4813 6d3b 6c3d c03e 6877 13be 7fdc 8f3e
00000150: 2da0 15bc 73cd e0bf 1be7 59bf a8ad 423f
00000160: 6ebe 4ebe 0998 1f3e 9e3d 26be b46f 83c0
00000170: 846d 8bbf 02ec 15bf fafa 843e 548a a3be
00000180: 8f81 e3be 07ea 97b9 6443 223f 9b18 7f3e
00000190: 2c7b 3dbf 19da 303f 6fb8 c9bc 1742 33bf
000001a0: eee0 48be e4d2 d8bf adca 3f40 84fc 1cbd
000001b0: b8a1 a03e fb79 09bf 5a65 0ebf 9c90 a53e
000001c0: 1386 57c0 d9f0 3dc0 bafc 87be 2649 b03e
000001d0: 38d1 96be 53ac 1a3f 0b4c 93bc e618 cd3f
000001e0: 53a6 1440 d11b 193f d001 a5be 81a9 1cbf
000001f0: 1310 a9be b5ca e83d 9283 4d3f 3828 15c0
00000200: 89c2 203f 9c09 6fbe c53c 24be b364 823e
00000210: 9d07 a7bd 3f97 2fbe 1fc5 023f 94c7 933e
00000220: f177 df3e e52a 71bf 7c93 9ebe 0282 493e
00000230: 3a65 81be 7952 2ac0 1fdf cd3e ea5f 1f3e
00000240: 4c8d d4be 98d6 b33e 0a74 58be 3a7e c1bf
00000250: 9bab 543e 8a79 01bf ccc5 df3e a467 2dbf
00000260: fcda 963c e7b7 1b3d d589 4f3f 1009 803f
00000270: b701 623d 8670 2a3f ec16 47bf f7aa 593f
00000280: bd98 b3be a1bf 643f 485b 93bf 10de 67bf
00000290: efb0 153f 5f76 12bf 2be9 ca3d 4c18 253e
000002a0: c29b e2bd 2448 b7be dc5f 76bf 15aa 793f
000002b0: e9cf b73d b828 493e e3e6 acbd 244c 0ebf
000002c0: 0ccc f83f b87a 003f 3607 29bf 21bd c6bc
000002d0: 92ae c6bf 91fa 323d 9b55 1440 7115 423f
000002e0: 4db9 19bf 1c18 333e bf86 20be fda4 16be
000002f0: 1ece 86be a8c1 71c0 4115 1540 efdc d0be
00000300: 1e6a a3be ec92 e2be c55b 6d3f 8be2 5ebd
00000310: 933f 2fc0 681a 2b3f fe43 56be d233 2f3f
00000320: a573 1ebf 28d5 32bd 98fb 7e3d e95d 82c0
00000330: 5644 8abf 961d fa3d d6f8 5f3d 35b8 1ebe
00000340: 7d14 59bd fdc4 2fbd ec32 9fbf dfe2 5bc0
00000350: 198f ad3e 77a0 c23d 5fa8 92be e305 043f
00000360: 1386 9739 fdae 8a3f 8432 ffbf 2a32 2abf
00000370: 9c88 b4bd 4cf3 9dbd 55fc 7abf 95da 5a3e
00000380: 27ff cc3e 76b9 823e 88a6 2dbf a8fa 533f
00000390: 98b1 61be 6e32 8f3f 1cde d6bd ceda 573f
000003a0: 4bec 833f e340 763f fec8 b2bf 6c8f ae3c
000003b0: 9464 28bf 5f20 71bd e7a8 5140 8ccc 213f
000003c0: 5b18 86be d7c0 533f 90b6 1fbf 2082 a83e
000003d0: 8083 a13c 4006 e03e a16e ce3e 613b 60bf
000003e0: d263 633f 3c8e 30bd 5732 503e 6099 4bbd
000003f0: 13bb 8a3f b70a 833f 2286 78bd d1f0 27be

fc1.bias f4 [100]
-0.9146789 -0.70993674 -0.41439423 -0.6989754 -0.13973667 0.1270506 -0.33697078 -0.93934333
0.3025762 0.076818794 -0.16263156 -0.5603072 0.0094208615 -0.107654996 0.002346273 -0.46470955
-0.08851336 0.27412018 -0.46110046 -0.38696057 -0.2982191 -1.4641359 -0.48625985 -0.43081534
0.013612359 0.23405412 -0.2644858 -0.3847643 0.1274494 0.02217816 -0.4074473 -1.051747
-1.2792302 -0.29319477 -0.60729146 0.102706484 -0.8132972 0.09969236 -0.35133845 -1.3198329
0.38265067 -0.039573316 -0.52490586 -0.54592246 -0.76753867 -0.9755293 -0.6996609 -0.51344365
-0.2670244 -1.1085104 0.030636327 -0.8461334 -0.55042136 -0.035533093 -0.32096976 0.41199645
0.1926477 -0.37600946 -0.21731931 -0.29209435 -0.26861605 -1.1931849 -0.086989366 -0.106247574
-0.2331341 -0.52703553 -0.3366155 -0.68461657 0.33733225 -0.48860803 -0.25699696 -0.12887952
-0.7749714 -0.56583005 -0.2883377 -0.7786609 -0.32831815 0.16516602 -0.24642628 -0.46988624
0.42028064 -0.55230606 -0.42505154 -0.32017115 -0.099147245 0.20968394 -0.30256623 -0.90504676
-1.110835 -0.7796444 0.112739295 -0.64416295 -0.22593777 -0.12182883 -0.5569553 0.06731017
-0.43814284 -0.98232424 -0.25376287 -0.47283962
00000000: 6528 6abf 6abe 35bf 7b2b d4be 0df0 32bf
00000010: 2117 0fbe 8d19 023e 6f87 acbe ce78 70bf
00000020: 45eb 9a3e 2c53 9d3d e388 26be 4b70 0fbf
00000030: f559 1a3c 397a dcbd eec3 193b 69ee edbe
00000040: 7e46 b5bd 7b59 8c3e 5c15 ecbe b21f c6be
00000050: 2db0 98be ce68 bbbf 0df7 f8be d493 dcbe
00000060: 5f06 5f3c e2ab 6f3e af6a 87be d4ff c4be
00000070: 1882 023e f9ae b53c ef9c d0be a59f 86bf
00000080: d1bd a3bf a01d 96be 7477 1bbf c757 d23d
00000090: 3f34 50bf 822b cc3d a2e2 b3be 49f0 a8bf
000000a0: caea c33e a117 22bd 3b60 06bf 93c1 0bbf
000000b0: 6a7d 44bf 4abc 79bf fa1c 33bf 0b71 03bf
000000c0: 6cb7 88be abe3 8dbf 09f9 fa3c 339c 58bf
000000d0: 6ae8 0cbf 268b 11bd 2656 a4be 33f1 d23e
000000e0: 7045 453e 5084 c0be f488 5ebe 648d 95be
000000f0: 0b88 89be 48ba 98bf 7b27 b2bd 5498 d9bd
00000100: b5ba 6ebe cdeb 06bf de58 acbe 0843 2fbf
00000110: d0b6 ac3e d52a fabe 1b95 83be fef8 03be
00000120: 8764 46bf 3dda 10bf 00a1 93be 5256 47bf
00000130: 5119 a8be 4821 293e 2c57 7cbe ee94 f0be
00000140: 062f d73e ee63 0dbf 5ba0 d9be 79ed a3be
00000150: b60d cbbd 63b7 563e f6e9 9abe 25b1 67bf
00000160: d72f 8ebf c796 47bf dce3 e63d dde7 24bf
00000170: 3b5c 67be 6581 f9bd 9f94 0ebf ead9 893d
00000180: 4254 e0be 9a79 7bbf 35ed 81be 0918 f2be

fc2.weight f4 [50, 100]
-0.4183013 1.5745118 -0.8698561 0.89692855 -1.1976748 0.86875343 -0.3691047 0.08971886
-1.5962654 -0.23350394 0.83845 0.8350158 -0.33518904 1.1615074 0.7715955 0.14277934
0.15890986 0.7906394 -1.0028462 0.5694462 -0.440484 0.3395814 -0.16349857 0.1959944
-1.8170966 0.63908094 0.14495495 -0.18398699 0.0051491978 0.46266788 1.2190413 -0.08674887
-0.5973672 0.51874506 1.2110305 -1.6683414 0.35628563 -1.7552915 0.35909298 -0.44131172
0.5115439 0.30975863 0.26607388 -1.6416148 -0.49649373 -0.60341114 0.07198945 0.37762433
-0.2954056 1.0709952 0.34435368 -1.0436127 -0.57913804 0.48950812 -0.6242758 0.2703361
0.6277446 0.36070815 -0.046416745 0.3525603 0.113830455 1.2280058 0.16261457 -0.50332916
-0.35979632 -0.43586528 0.44776395 0.9394983 0.7407057 -0.5358373 -0.29761276 0.572983
-1.2519431 1.0225525 -0.22928293 -0.14478205 -0.23195578 -0.19659154 1.0485094 0.33524516
0.585441 -1.8159227 -1.4393998 -0.023330862 0.3569501 0.059544906 0.5885544 0.68685776
-0.209024 0.27914223 0.2409844 0.71272624 0.368314 0.06733533 0.7177807 -0.19486469
-0.26936886 0.43499362 0.14232457 -1.6122773 1.4813497 0.5746579 0.8475878 0.40040797
-1.223724 -0.92004913 1.1744142 -0.040518343 0.020037267 0.9477202 1.1717817 -0.43429622
-0.122792535 -0.07187349 0.33460647 0.69153076 -0.5799627 0.36465403 0.369491 -0.47775298
-0.79293907 0.16990393 0.45651886 0.44883087 -0.020030152 0.2852946 0.07581399 0.63569933
0.043628067 0.09919509 0.2557593 -0.089586236 1.2669277 0.3390742 -0.3075945 0.7098496
0.86644673 0.56748104 -1.2377094 1.0087769 0.21557628 0.9062183 -0.065222815 1.0592768
0.7173456 0.16619653 -1.6400533 -0.18470381 0.79803485 0.19745027 0.03784968 1.9120772
-1.7073432 -1.3552557 -0.41466007 -0.08304726 0.7461609 0.4427167 -0.114132516 1.2623621
0.9467224 0.33181787 0.68987894 -1.3359466 0.21494572 -1.2637799 0.9941471 1.2511207
0.98289657 0.894455 0.6116749 -0.8624294 1.1633466 0.07355686 -0.47648254 -0.3478426
0.92464083 -0.674871 -0.4960111 -0.7150925 -0.79359174 -0.5140637 -0.8994439 1.2264441
0.20761304 0.1918878 0.08567743 -0.4736413 -0.29907998 0.303753 -0.007781692 -0.56135404
0.5895874 -0.63357127 -0.13360617 -0.30273536 -0.6658212 0.7231391 0.90065217 0.9577731
1.0081272 0.6848908 0.6100511 0.11796777 -0.6141817 -0.38855857 0.03326147 1.3057184
-0.96623695 -0.99448955 -0.27737197 1.127131 0.6534612 1.3376309 -0.78636783 -0.13929395
-0.5033424 0.6865239 -0.3191847 -0.08611949 -0.6779707 0.71943766 0.15680581 0.48292175
0.4680146 -0.11382747 0.524423 0.5358314 -1.1509252 -0.79781187 -1.2303065 0.6475962
-0.3712762 -1.5609577 0.26679808 -0.15647651 -0.106812 0.83801526 0.054230407 0.2847838
0.057085842 -0.5036255 0.54236406 0.60150975 0.7583357 0.016139928 -1.0075014 -0.41422737
-0.51173323 0.49805537 0.6096399 0.63550836 0.4846175 0.5547439 1.1579943 -0.061657898
00000000: 972b d6be 9a89 c93f e4ae 5ebf 1c9d 653f
00000010: 684d 99bf a066 5e3f 4bfb bcbe 86be b73d
00000020: 6d52 ccbf a81b 6fbe a9a4 563f 98c3 553f
00000030: e69d abbe 46ac 943f 4887 453f bf34 123e
00000040: 44b9 223e 5867 4a3f 445d 80bf 3ac7 113f
00000050: 1e87 e1be 9ddd ad3e 2b6c 27be c2b2 483e
00000060: 9f96 e8bf cf9a 233f 126f 143e 1667 3cbe
00000070: 9aba a83b cee2 ec3e 8c09 9c3f 64a9 b1bd
00000080: 0fed 18bf 7acc 043f 0c03 9b3f 368c d5bf
00000090: 126b b63e 64ad e0bf 09db b73e 9cf3 e1be
000000a0: 8bf4 023f af98 9e3e d63a 883e 6f20 d2bf
000000b0: 6d34 febe 2779 1abf 346f 933d fa57 c13e
000000c0: 673f 97be 5f16 893f 204f b03e 1a95 85bf
000000d0: 6442 14bf cfa0 fa3e 8ad0 1fbf 7e69 8a3e
000000e0: dfb3 203f bdae b83e 7c1f 3ebd c982 b43e
000000f0: f11f e93d 4b2f 9d3f 6f84 263e 2eda 00bf
00000100: 3937 b8be bc29 dfbe 5141 e53e f682 703f
00000110: e49e 3d3f a22c 09bf b360 98be 04af 123f
00000120: ac3f a0bf 00e3 823f 25c9 6abe bf41 14be
00000130: d185 6dbe 4b4f 49be 8e35 863f 41a5 ab3e
00000140: 76df 153f 2870 e8bf 413e b8bf 5d20 bfbc
00000150: 2ac2 b63e 5ce5 733d 80ab 163f e9d5 2f3f
00000160: 630a 56be bbeb 8e3e 9dc4 763e 3a75 363f
00000170: a793 bc3e 1be7 893d 7ac0 373f 9c8a 47be
00000180: b7ea 89be 7cb7 de3e 88bd 113e 1a5f cebf
00000190: de9c bd3f c81c 133f 84fb 583f 4602 cd3e
000001a0: fda2 9cbf 5788 6bbf 3453 963f 90f6 25bd
000001b0: 3225 a43c cb9d 723f f1fc 953f 135c debe
000001c0: a77a fbbd 6932 93bd 8a51 ab3e 2908 313f
000001d0: 6f78 14bf efb3 ba3e ed2d bd3e 0a9c f4be
000001e0: 0efe 4abf 4cfb 2d3e d7bc e93e 29cd e53e
000001f0: 4616 a4bc 2212 923e 5d44 9b3d 31bd 223f
00000200: 58b3 323d cc26 cb3d e2f2 823e fd78 b7bd
00000210: b02a a23f 229b ad3e 077d 9dbe b4b8 353f
00000220: 74cf 5d3f 7046 113f 436d 9ebf 9a1f 813f
00000230: 07c0 5c3e ecfd 673f 8a93 85bd 6296 873f
00000240: f6a3 373f 6c2f 2a3e 44ed d1bf ff22 3dbe
00000250: 034c 4c3f 6730 4a3e 4408 1b3d f2be f43f
00000260: 398a dabf 0579 adbf 534e d4be af14 aabd
00000270: 6704 3f3f c3ab e23e 4fbe e9bd 1595 a13f
00000280: 665c 723f 08e4 a93e e89b 303f 4c00 abbf
00000290: bb1a 5c3e 8ac3 a1bf 6d80 7e3f b924 a03f
000002a0: 1c9f 7b3f 01fb 643f ba96 1c3f 2cc8 5cbf
000002b0: 8be8 943f fba4 963d 85f5 f3be 6d18 b2be
000002c0: 43b5 6c3f 59c4 2cbf 2bf5 fdbe 4d10 37bf
000002d0: d428 4bbf ae99 03bf f541 66bf 1ffc 9c3f
000002e0: 8398 543e 3c7e 443e a677 af3d 1d81 f2be
000002f0: 0321 99be 8385 9b3e 90fd febb e6b4 0fbf
00000300: 33ef 163f ba31 22bf 0ed0 08be 2100 9bbe
00000310: 4273 2abf a51f 393f 2491 663f 9e30 753f
00000320: 500a 813f 0155 2f3f 4f2c 1c3f 1699 f13d
00000330: 033b 1dbf 26f1 c6be 2e3d 083d c821 a73f
00000340: 4e5b 77bf de96 7ebf b303 8ebe d445 903f
00000350: 3c49 273f 7d37 ab3f 674f 49bf 13a3 0ebe
00000360: 0cdb 00bf 08c0 2f3f 2d6c a3be 6a5f b0bd
00000370: 7d8f 2dbf 112d 383f b491 203e 8541 f73e
00000380: 9c9f ef3e 601e e9bd 9640 063f 3f2c 093f
00000390: 8451 93bf 663d 4cbf af7a 9dbf ddc8 253f
000003a0: ea17 bebe 76cd c7bf c299 883e 613b 20be
000003b0: 40c0 dabd 2b88 563f b420 5e3d 2fcf 913e
000003c0: d8d2 693d 9aed 00bf 5fd8 0a3f 8bfc 193f
000003d0: 4a22 423f e237 843c cef5 80bf 9c15 d4be
000003e0: f300 03bf 1d01 ff3e 5c11 1c3f adb0 223f
000003f0: c91f f83e b203 0e3f 2839 943f fe8c 7cbd

fc2.bias f4 [50]
0.011296455 -0.08725303 -0.12315486 -0.08230642 -0.07851337 0.27373606 0.24664433 -0.3653813
-0.1166727 0.41831672 0.018553471 -0.10025921 -1.1063765 -0.20654145 -0.011622684 -1.1212776
-0.39810508 -1.4619423 -0.050922386 -0.9954492 -0.9120682 -0.9301761 -0.07987515 -0.050101288
0.5884744 0.16838104 0.48877308 0.39623398 -0.01278223 0.053456288 -0.16792537 -0.010894406
0.28559223 0.34818825 0.22668551 0.32126278 -1.2284349 0.18144532 -1.0927271 0.33852136
0.2541733 0.3614971 -0.5860006 0.0556978 0.38849702 0.28521824 -0.31424347 -0.95894134
-0.16919482 -0.5644953
00000000: c414 393c b7b1 b2bd 9e38 fcbd 4590 a8bd
00000010: 9ecb a0bd 2227 8c3e 5590 7c3e 4213 bbbe
00000020: 19f2 eebd 9c2d d63e 73fd 973c b354 cdbd
00000030: bf9d 8dbf 9a7f 53be 126d 3ebc 0686 8fbf
00000040: 6ed4 cbbe ed20 bbbf fe93 50bd c2d5 7ebf
00000050: 4d7d 69bf 0520 6ebf 9595 a3bd 0237 4dbd
00000060: 42a6 163f 146c 2c3e 7740 fa3e 2edf ca3e
00000070: 8f6c 51bc fbf4 5a3d a1f4 2bbe 737e 32bc
00000080: 2539 923e bb45 b23e 3f20 683e 8e7c a43e
00000090: 5b3d 9dbf cdcc 393e 7bde 8bbf ac52 ad3e
000000a0: 0123 823e 2616 b93e 2304 16bf 6023 643d
000000b0: 15e9 c63e 2008 923e 85e4 a0be 2e7d 75bf
000000c0: 6841 2dbe c482 10bf

out.weight f4 [4, 50]
0.009991131 0.321622 -0.7133044 -0.3047754 0.44229576 0.21987802 0.14161795 2.144279
0.784828 -0.15869933 0.44169202 -0.50745356 0.37188417 -0.5054807 0.39225703 -2.333083
0.16439156 -1.1840891 -0.07430487 -0.55576915 0.6219244 -1.8944579 0.5762791 -0.009984579
-0.49351525 0.30232844 0.109916724 0.015697293 -0.23587672 0.594803 -0.7358638 0.24591172
-0.48561162 -0.3596904 -0.07344124 -0.47746947 0.800357 0.32551593 -0.23828097 -0.21638903
0.44003293 0.17547953 -1.223011 0.49395758 0.57640207 0.1506342 0.38882977 2.2063632
0.07183665 1.0742376 0.88559717 -0.15680553 -0.77385086 0.35988855 -0.13695802 -0.9528676
0.06690802 0.8108653 0.6776357 -0.16488601 0.5863629 0.6026244 1.0916183 -0.6831563
-0.43096134 0.37415808 0.25327092 -1.7380193 0.043492425 1.5476302 0.5059515 -0.97296625
0.46485853 0.3235567 -0.43948546 0.33518556 -0.15019065 -0.044822086 -0.034780737 -0.077324435
0.022059716 0.47379336 -0.33364096 -0.27902535 -0.7244281 0.03650564 0.38795954 -0.16479726
-0.870154 0.075332 0.5880763 -0.46895996 -0.5441522 -0.92475206 -0.2701703 -0.002832419
-0.01141863 -0.30979094 0.048829075 1.4139606 0.27900577 0.18287852 -0.64964056 0.014825772
-0.77620405 0.72253114 -0.3864503 1.5858247 0.9330295 -0.35417044 0.011084649 -0.26541528
0.65306187 -0.116708614 -0.2525161 -0.88483477 0.48772168 1.7080622 0.14099385 -1.3006401
1.6673284 0.70596707 -0.3087419 -1.0513018 -0.036776274 -0.046850596 -0.056727022 -0.49956328
0.6201253 -0.3052137 0.98404634 0.33453918 -0.25625223 0.48542473 0.019639488 0.027009364
-0.35194042 0.086882316 -2.185597 -0.3205151 1.4196647 0.08759434 0.11221963 -0.8384742
-1.3564005 0.6480985 -0.57340616 0.7216848 -0.17629814 -1.1716318 0.2691452 0.83621144
-0.11121679 -1.040703 0.025538031 -1.2278031 0.28874138 0.11744026 -3.0880022 0.78535795
0.08611694 0.08307294 -1.1770797 -0.27809316 -0.3083813 0.22633022 0.16560385 0.6134844
-0.49499416 1.0410022 1.235969 1.3207031 0.6793476 0.2226124 0.5450531 -1.7288283
-0.301914 -0.5064669 0.9722957 0.6123812 0.056967385 -0.015214435 -0.16810837 0.23638678
0.5620519 -0.81753784 0.6360567 -0.20789824 -0.016350593 0.34034485 -0.77816653 -0.19570705
0.82650566 -0.096589796 0.45917195 0.75890756 -0.10973934 -0.37230733 -0.90277886 -0.50766224
00000000: d7b1 233c a4ab a43e 1e9b 36bf 850b 9cbe
00000010: 9774 e23e b427 613e 4c04 113e de3b 0940
00000020: 7dea 483f 1482 22be 7525 e23e 7ae8 01bf
00000030: 9a67 be3e 2f67 01bf ead5 c83e 3b51 15c0
00000040: 4356 283e 3b90 97bf 272d 98bd e346 0ebf
00000050: 7036 1f3f 997d f2bf 0787 133f 5c96 23bc
00000060: 08ae fcbe cbca 9a3e 051c e13d 9c97 803c
00000070: ab89 71be 0245 183f 9261 3cbf 48d0 7b3e
00000080: 16a2 f8be 5729 b8be 5c68 96bd e176 f4be
00000090: 32e4 4c3f 06aa a63e edff 73be 1695 5dbe
000000a0: ff4b e13e e8b0 333e a08b 9cbf 02e8 fc3e
000000b0: 168f 133f da3f 1a3e b214 c73e 0e35 0d40
000000c0: 181f 933d 9e80 893f 7fb6 623f a191 20be
000000d0: 171b 46bf 5043 b83e b93e 0cbe 22ef 73bf
000000e0: 1207 893d de94 4f3f 8979 2d3f e1d7 28be
000000f0: e11b 163f 9845 1a3f 26ba 8b3f 55e3 2ebf
00000100: f7a6 dcbe a691 bf3e baac 813e 6b77 debf
00000110: 1d25 323d bf18 c63f 0a86 013f 5114 79bf
00000120: f001 ee3e 39a9 a53e 3d04 e1be 719d ab3e
00000130: 94cb 19be 5d97 37bd 3f76 0ebd 465c 9ebd
00000140: 94b6 b43c 0b95 f23e fdd2 aabe 69dc 8ebe
00000150: 1f74 39bf f086 153d a2a2 c63e 9dc0 28be
00000160: 6ac2 5ebf aa47 9a3d 2b8c 163f 851b f0be
00000170: 8f4d 0bbf 8dbc 6cbf c353 8abe 1ba0 39bb
00000180: 3515 3bbc eb9c 9ebe ff00 483d a9fc b43f
00000190: d8d9 8e3e 8244 3b3e d84e 26bf cbe7 723c
000001a0: 4fb5 46bf cdf7 383f d0dc c5be 4efc ca3f
000001b0: 05db 6e3f d455 b5be 639c 353c 83e4 87be
000001c0: 102f 273f ed04 efbd ca49 81be 8884 62bf
000001d0: a8b6 f93e c8a1 da3f b160 103e 607b a6bf
000001e0: 046b d53f 42ba 343f 6b13 9ebe 0f91 86bf
000001f0: b8a2 16bd 69e6 3fbd 985a 68bd c2c6 ffbe
00000200: 88c0 1e3f f844 9cbe 76ea 7b3f b848 ab3e
00000210: 7e33 83be 9789 f83e fee2 a03c be42 dd3c
00000220: 8931 b4be 5bef b13d d2e0 0bc0 8e1a a4be
00000230: 93b7 b53f a964 b33d 68d3 e53d 3fa6 56bf
00000240: 889e adbf c9e9 253f bfca 12bf 56c0 383f
00000250: 8087 34be 08f8 95bf 66cd 893e f411 563f
00000260: a1c5 e3bd c235 85bf 2235 d13c a728 9dbf
00000270: e9d5 933e 8584 f03d d4a1 45c0 380d 493f
00000280: 145e b03d 2522 aa3d 8caa 96bf 3a62 8ebe
00000290: 27e4 9dbe 1cc3 673e 0e94 293e 500d 1d3f
000002a0: e06f fdbe 8f3f 853f 3b34 9e3f cd0c a93f
000002b0: b9e9 2d3f 81f4 633e 9a88 0b3f 3f4a ddbf
000002c0: 7994 9abe d1a7 01bf 5fe8 783f 04c5 1c3f
000002d0: a256 693d f745 79bc 9a24 2cbe 600f 723e
000002e0: a2e2 0f3f 294a 51bf 9dd4 223f 47e3 54be
000002f0: aef1 85bc ae41 ae3e ec35 47bf 6e67 48be
00000300: e095 533f dfd0 c5bd 9618 eb3e c447 423f
00000310: 05bf e0bd 119f bebe 841c 67bf 27f6 01bf

out.bias f4 [4]
-0.07490308 -0.018593099 0.08651753 0.32540652
00000000: c966 99bd 8e50 98bc 1a30 b13d af9b a63e

fc1.weight f4 [64, 11]
-1.6346782 0.09616637 2.1863594 -1.9535749 0.2481769 0.20511405 0.095149346 0.026738878
0.024186853 0.0039647245 -0.020174582 -1.2464043 -4.547169 -0.16641559 -1.4373329 -2.4437902
0.9433591 -0.45194197 -0.019502597 -0.012615995 0.008566572 -0.013641392 -0.46923012 -0.60925186
-0.0773235 -0.07417053 -0.48782858 -0.20763251 0.0037760874 -0.0008804918 -0.017708926 -0.055040963
-0.026887717 -11.326569 -4.0590196 -0.44562352 0.61262256 0.017176097 0.018280441 -0.101472765
-0.0032827132 0.00075490307 -1.21144185e-05 0.00037029237 -7.528048 0.20156494 1.1388834 -1.3991114
0.3745748 -0.9335518 -0.14603241 -0.002976736 0.011917792 -0.014991664 -0.014776212 -6.962289
-0.94437784 1.3689417 0.36825547 -1.804261 -0.10486805 1.5811753 0.012502103 -0.026762636
0.0062554018 -0.024137532 -0.82307976 -0.63238305 0.35193327 0.7547719 -0.36391172 -0.43092167
0.0056514675 0.029708372 0.003960541 -0.018735643 -0.0016825864 -0.0016154342 0.69254243 1.798195
-1.5000604 -1.02888 0.5448464 -0.879582 -0.07703394 0.15671399 -0.0043689255 0.045994442
-1.3704405 -5.1618185 -0.86248535 1.8137758 0.2313491 -1.8444526 -0.07055628 -0.017240783
0.00020662449 -0.0007088766 0.00983293 0.3285611 0.01485143 0.4380271 0.2959478 -0.73297364
-0.29488236 -0.79709005 -0.0010894688 -0.014341305 -0.03387601 -0.008170081 -2.4158366 1.0132531
0.5725897 -0.40535343 -0.97150683 -3.2347314 0.23752582 -0.038657006 -0.04157006 -0.10495374
-0.005884006 0.63091546 -1.1367903 1.0781404 -1.806106 -0.52270246 1.14276 1.1948321
-0.048115723 -0.04331301 0.017723624 0.04753193 -1.2938828 0.06810149 0.00035036518 -0.07111281
-0.5009937 0.39891022 0.12722144 0.0049568 -0.014439931 0.054166894 0.03241751 2.6728456
7.380023 -0.7627824 0.7133252 -0.6930423 -2.6641498 -0.09344475 -0.015822068 0.0032903044
-0.0038965677 -0.0050599445 1.2359569 -5.308021 -0.8554743 -0.85962534 -3.7373981 -0.48849666
-1.8006028 -0.051197894 0.019804096 -0.0105837425 0.014598545 -1.6660221 2.7140253 0.62121254
-1.335892 -0.6023901 0.18043573 -0.020758787 -0.00652487 -0.0056060986 0.005279811 0.05903823
-0.98944986 4.549033 -0.16759476 1.8944061 0.7777881 0.8216957 0.1556624 0.0025345916
0.0020938553 0.006983368 -0.0009693476 -11.1593275 3.332691 -0.47384351 0.35276002 -0.10065081
-1.054164 -0.028289527 -0.0029327204 0.001209355 -0.0047418545 -0.0018274165 -1.474231 -1.0869162
-0.2342376 0.08190316 -0.57841736 -0.27270472 -0.24707593 -0.06175696 -0.008176067 -0.023728436
-0.008455286 -0.74820226 -0.43847215 1.0844111 -0.08772737 -0.014513021 -1.5915124 -1.6914103
-0.12151918 0.035655934 -0.09612976 -0.023000477 1.9468383 3.8559527 -0.042410836 1.4906948
-2.0374858 0.015331507 0.2509392 -0.013988956 -0.021842036 0.0036385935 -0.012145595 0.45929632
5.827083 -0.6266641 -0.50746745 -2.1960971 -3.1833725 -0.64431244 -0.062847644 -0.04551041
-0.004377806 0.0036696692 1.9414793 1.5271959 -0.7796681 2.1777449 -0.68189543 1.3213965
-0.4341681 -0.044666987 -0.010475415 -0.0067143077 0.016427679 -7.949169 2.5999453 -0.14965306
00000000: 233d d1bf e0f2 c43d 50ed 0b40 be0e fabf
00000010: 1622 7e3e 6b09 523e a9dd c23d 7e0b db3c
00000020: 8223 c63c 85ea 813b 2a45 a5bc 2d8a 9fbf
00000030: 6982 91c0 d968 2abe 86fa b7bf 0f67 1cc0
00000040: fb7f 713f f064 e7be e9c3 9fbc 51b3 4ebc
00000050: cf5a 0c3c 2580 5fbc ee3e f0be eef7 1bbf
00000060: c85b 9ebd b8e6 97bd abc4 f9be 9e9d 54be
00000070: 3c78 773b ced0 66ba 4f12 91bc a272 61bd
00000080: a143 dcbc a039 35c1 7de3 81c0 c428 e4be
00000090: d5d4 1c3f e3b4 8c3c ddc0 953c f4d0 cfbd
000000a0: ca22 57bb b0e4 453a 083f 4bb7 cd23 c239
000000b0: c5e5 f0c0 0a67 4e3e eec6 913f 1516 b3bf
000000c0: 45c8 bf3e 40fd 6ebf 8589 15be 5815 43bb
000000d0: d842 433c 999f 75bc ed17 72bc 12cb dec0
000000e0: bfc2 71bf 7b39 af3f fb8b bc3e 06f2 e6bf
000000f0: 0fc5 d6bd f463 ca3f 9fd5 4c3c 513d dbbc
00000100: 1dfa cc3b 13bc c5bc 5bb5 52bf dbe3 21bf
00000110: 9930 b43e bb38 413f a352 babe c4a1 dcbe
00000120: f22f b93b f95e f33c 6dc7 813b 7e7b 99bc
00000130: 3b8a dcba fabc d3ba 764a 313f 412b e63f
00000140: fb01 c0bf 57b2 83bf 0e7b 0b3f 492c 61bf
00000150: f8c3 9dbd a279 203e 3429 8fbb ab64 3c3d
00000160: 986a afbf 9e2d a5c0 d7cb 5cbf ce29 e83f
00000170: c7e6 6c3e 0617 ecbf d07f 90bd 8b3c 8dbc
00000180: 57a9 5839 e7d3 39ba 4c1a 213c 2939 a83e
00000190: 6a53 733c 1745 e03e 7886 973e 29a4 3bbf
000001a0: d2fa 96be 180e 4cbf 82cc 8eba cbf7 6abc
000001b0: 92c1 0abd cedb 05bc 119d 1ac0 47b2 813f
000001c0: 3d95 123f 7c8a cfbe acb4 78bf d705 4fc0
000001d0: f839 733e cf56 1ebd 5e45 2abd fdf1 d6bd
000001e0: 9fce c0bb ad83 213f 5882 91bf 8100 8a3f
000001f0: 7b2e e7bf d4cf 05bf f645 923f 42f0 983f
00000200: fe14 45bd fc68 31bd 2231 913c d7b0 423d
00000210: f49d a5bf cb78 8b3d 38b1 b739 98a3 91bd
00000220: 2041 00bf f63d cc3e 5646 023e a76c a23b
00000230: 7695 6cbc 1bde 5d3d 39c8 043d e70f 2b40
00000240: 2629 ec40 b545 43bf 7b9c 363f 386b 31bf
00000250: 6e81 2ac0 f65f bfbd 489d 81bc 26a2 573b
00000260: 8f5d 7fbb e4cd a5bb d633 9e3f 4fdb a9c0
00000270: 5d00 5bbf 6810 5cbf 8831 6fc0 3c1c fabe
00000280: 277a e6bf e2b4 51bd 333c a23c 6f67 2dbc
00000290: bc2e 6f3c 3640 d5bf 97b2 2d40 c907 1f3f
000002a0: 82fe aabf 3d36 1abf 25c4 383e 550e aabc
000002b0: 94ce d5bb 5db3 b7bb 4402 ad3b 12d2 713d
000002c0: 964c 7dbf ae91 9140 f69d 2bbe e67b f23f
000002d0: 1f1d 473f a65a 523f f765 1f3e 641b 263b
000002e0: 1039 093b bdd4 e43b d11b 7eba 9b8c 32c1
000002f0: cf4a 5540 9e9b f2be f69c b43e 0322 cebd
00000300: d9ee 86bf 70bf e7bc e232 40bb 3883 9e3a
00000310: 8f61 9bbb ec85 efba 9ab3 bcbf 1220 8bbf
00000320: fbdb 6fbe d8bc a73d 2913 14bf f49f 8bbe
00000330: 7901 7dbe def4 7cbd e9f4 05bc 2362 c2bc
00000340: 0a88 0abc 2f8a 3fbf 6c7f e0be fccd 8a3f
00000350: 68aa b3bd 06c8 6dbc aeb6 cbbf 2280 d8bf
00000360: 0cdf f8bd f50b 123d aedf c4bd 7f6b bcbc
00000370: ff31 f93f eec7 7640 fcb6 2dbd 16cf be3f
00000380: 2b66 02c0 0031 7b3c 1a7b 803e ef31 65bc
00000390: 12ee b2bc 7875 6e3b 51fe 46bc e328 eb3e
000003a0: 7777 ba40 0f6d 20bf 63e9 01bf db8c 0cc0
000003b0: 60bc 4bc0 a9f1 24bf 44b6 80bd 2069 3abd
000003c0: b373 8fbb d57e 703b 6582 f83f 287b c33f
000003d0: 5498 47bf 2c60 0b40 b390 2ebf 8523 a93f
000003e0: 484b debe bbf4 36bd 13a1 2bbc b203 dcbb
000003f0: 5793 863c 985f fec0 8165 2640 a73e 19be

fc1.bias f4 [64]
0.86089593 -1.3466613 4.080344 0.22857891 0.5611965 0.73767155 3.8555357 -3.8571594
0.055398326 -3.749012 -2.1848207 -3.2075782 2.7283177 -0.43243286 0.3086067 -3.049429
-2.4637036 0.27589214 -1.1150669 -2.9217706 -1.1858886 1.1601341 -0.26352385 -1.1341542
1.4713328 0.15757078 -3.232268 0.41559187 -4.227259 -1.3486685 -1.9139225 -2.7716413
-2.4926271 -0.9338652 -2.206216 0.10307244 -3.0057344 -3.6753259 1.4916403 -2.5430636
0.767511 2.0834177 -1.1029265 -1.0009191 -1.7360326 0.32448882 0.8616247 -1.0040568
0.16235408 1.0184087 0.8222561 3.9683993 0.65133685 -1.2872952 1.1096904 -1.2385204
-2.331054 1.4335177 -0.9039146 -0.9466621 1.11181 -3.8433108 3.2310724 -0.74498856
00000000: ad63 5c3f 665f acbf 2e92 8240 9710 6a3e
00000010: 93aa 0f3f 0bd8 3c3f 19c1 7640 b3db 76c0
00000020: 5be9 623d d0ef 6fc0 1ad4 0bc0 f648 4dc0
00000030: c29c 2e40 d767 ddbe b301 9e3e d829 43c0
00000040: 52ad 1dc0 bc41 8d3e 83ba 8ebf 4afe 3ac0
00000050: 33cb 97bf 467f 943f 99ec 86be f72b 91bf
00000060: a254 bc3f 3c5a 213e 7bdd 4ec0 75c8 d43e
00000070: b545 87c0 2ba1 acbf 6afb f4bf 9262 31c0
00000080: 3487 1fc0 ca11 6fbf a532 0dc0 a517 d33d
00000090: f45d 40c0 8a38 6bc0 12ee be3f 8ec1 22c0
000000a0: 9a7b 443f b756 0540 b22c 8dbf 1e1e 80bf
000000b0: 5136 debf 6623 a63e 7093 5c3f ef84 80bf
000000c0: 2640 263e 375b 823f 607f 523f 41fa 7d40
000000d0: 03be 263f 17c6 a4bf 560a 8e3f d687 9ebf
000000e0: fd2f 15c0 827d b73f f266 67bf 7358 72bf
000000f0: ca4f 8e3f cef8 75c0 e4c9 4e40 92b7 3ebf
