model/linear.pth (torch_old, 75208 bytes, 22 tensors)

fc1.weight f4 [100, 7]
-3.6214805 -3.5686305 -0.22046503 -0.039599504 -0.027097281 -0.12462593 -0.008428559 1.1285125
1.8141274 0.08105058 0.17190512 -0.3155424 0.095446035 -0.00094262057 1.2915026 0.3125691
0.1856676 -0.19863074 -0.50549084 0.98957294 0.09236238 1.620106 0.6402894 -0.8192564
-0.5409233 -0.11429813 -0.044679534 0.034955103 -1.9125757 2.9152231 0.33968067 -0.050039265
-0.37288874 -0.5681953 0.070464335 0.19974354 0.06444738 -0.7936867 -0.16766255 -0.41171
-0.64199066 0.13339691 -5.5146217 -0.044480436 0.020427005 -0.05778589 -0.061582934 0.038306408
0.10664368 -2.394125 0.66812414 0.3380946 -0.16415693 -0.08491901 0.2523733 0.00076478487
-1.6936202 0.30783615 -0.5976627 0.010397045 -0.029141488 -0.6866852 -0.13050121 1.2022208
0.8781161 -0.22259216 -0.47718334 0.5004665 -0.1232819 0.022381717 -0.38717654 0.47321752
-0.5514065 -0.5705271 -0.13793583 -0.479833 0.0055166883 -1.8000718 0.9532212 -0.6778612
0.25797543 0.23930888 -0.5327409 0.041507 0.7441882 1.9053372 -0.35268626 -0.029419744
0.3027783 0.17962648 -0.015964145 -2.851159 -1.3204947 0.50074583 -0.012576893 -0.20337105
-0.45685372 0.12309278 -1.1334834 -1.246898 -0.25961545 -0.013601969 -0.22423157 0.1347905
0.52812153 0.007726843 0.581529 0.082573585 -0.15854782 -1.0843526 -0.9639669 0.5481789
0.8525184 -0.65644914 -0.35234922 0.34850785 -0.7681827 0.07613012 0.0035664649 -3.00042
-0.9216249 0.009092993 0.017880611 0.15263791 -0.71097624 -0.057694297 0.4355927 -0.3340969
-0.8662386 -0.0075415163 0.06606701 1.341452 -0.1247202 2.4260492 -2.1396127 0.7057522
-0.32566085 0.10202321 -0.112934254 0.10345818 2.2915885 0.05602935 0.6343133 -0.33476517
0.03391667 0.6801311 -0.015804507 -0.17687924 -0.7359268 -1.0209886 0.067353696 0.23182163
0.28130522 0.0045569986 -1.5295514 1.8846961 0.010349663 -0.33169195 -0.12103513 -0.6276688
-0.0063319267 0.14858817 0.09956375 -0.9175317 0.22494683 0.26788864 0.9821128 -0.066696465
0.28881848 0.672026 -0.31542078 -0.35131988 -0.5653424 0.8139085 -0.271702 -0.06955646
-0.07970118 -0.43924406 0.030287325 -0.46446952 -1.7480952 0.046576064 0.292325 0.06901993
0.5577544 -0.7393984 -0.07204617 -0.4778911 -0.01134431 -2.0038478 2.4006135 -0.50210774
0.07628188 0.13518403 0.7203093 -0.02615468 -1.4091421 -0.51726675 -0.6872428 0.33390066
-0.30894762 -0.4479304 -0.08607864 -1.7501956 2.5205505 -0.2881338 -0.08112023 -0.3769598
-0.6314346 -0.06416917 3.9966953 1.345943 0.054788888 -0.07681166 -0.455588 0.6364202
0.11379418 0.33536798 2.8388932 -0.037200715 -0.19468983 -0.90029764 -0.45460624 -0.072050855
-1.2174039 0.68409204 -0.547289 0.30788827 -0.062605985 -0.049332667 0.03857484 -2.0348222
-0.19921167 -0.40112588 -0.29015112 0.25162607 -1.4033526 -0.29258355 -4.141297 -1.7546576
-0.18416712 0.14445278 0.38825783 -0.23027542 0.006774189 0.018588515 2.2983656 0.08161263
-0.16404064 -0.23225248 -1.0278028 0.19220588 1.3999462 -0.941031 -0.8303827 0.01824386
00000000: 56c6 67c0 7164 64c0 96c1 61be 1733 22bd
00000010: 1efb ddbc e13b ffbd f017 0abc 1973 903f
00000020: 5435 e83f d9fd a53d e507 303e c68e a1be
00000030: 3679 c33d 321a 77ba f54f a53f 0f09 a03e
00000040: a61f 3e3e db65 4bbe d967 01bf a754 7d3f
00000050: 7d28 bd3d a25f cf3f 02ea 233f caba 51bf
00000060: f379 0abf 2315 eabd e301 37bd 152d 0f3d
00000070: 48cf f4bf 0493 3a40 a0ea ad3e f9f5 4cbd
00000080: 46eb bebe 3f75 11bf 9b4f 903d 9289 4c3e
00000090: fdfc 833d 0d2f 4bbf bbaf 2bbe a7cb d2be
000000a0: 8059 24bf 3399 083e c877 b0c0 1e31 36bd
000000b0: 8956 a73c e6b0 6cbd 633e 7cbd 2ee7 1c3d
000000c0: 0068 da3d 5839 19c0 2f0a 2b3f bc1a ad3e
000000d0: c118 28be 05ea adbd 1337 813e d87b 483a
000000e0: 8cc8 d8bf b39c 9d3e 6c00 19bf 5e58 2a3c
000000f0: 21ba eebc 9aca 2fbf 1ca2 05be 5fe2 993f
00000100: 37cc 603f 33ef 63be 6051 f4be 931e 003f
00000110: 397b fcbd dd59 b73c 013c c6be 9149 f23e
00000120: fa28 0dbf 100e 12bf 0d3f 0dbe acac f5be
00000130: 56c5 b43b c168 e6bf 4e06 743f 5088 2dbf
00000140: 5b15 843e 630d 753e b561 08bf 3e03 2a3d
00000150: 1e83 3e3f 17e2 f33f 4b93 b4be ad01 f1bc
00000160: c205 9b3e 01f0 373e 3dc7 82bc 6479 36c0
00000170: f805 a9bf e130 003f 500f 4ebc 8040 50be
00000180: bbe8 e9be 1118 fc3d fc15 91bf 5b9a 9fbf
00000190: 51ec 84be cbda 5ebc f69c 65be 8506 0a3e
000001a0: f932 073f 7531 fd3b 16df 143f 571c a93d
000001b0: 5c5a 22be 11cc 8abf 89c6 76bf 7455 0c3f
000001c0: a53e 5a3f 0d0d 28bf 1e67 b4be 9f6f b23e
000001d0: 9fa7 44bf 1cea 9b3d 5abb 693b e206 40c0
000001e0: 9cef 6bbf c7fa 143c 5c7a 923c 1d4d 1c3e
000001f0: 8a02 36bf db50 6cbd 0206 df3e c00e abbe
00000200: d0c1 5dbf d31e f7bb 244e 873d b3b4 ab3f
00000210: 4e6d ffbd 6444 1b40 6aef 08c0 2dac 343f
00000220: 05bd a6be 8bf1 d03d 134a e7bd e2e1 d33d
00000230: 63a9 1240 087f 653d 5b62 223f 5766 abbe
00000240: 35ec 0a3d 121d 2e3f 7478 81bc d51f 35be
00000250: b365 3cbf c1af 82bf bcf0 893d a662 6d3e
00000260: 3d07 903e e052 953b 57c8 c3bf b93d f13f
00000270: a291 293c 87d3 a9be 44e1 f7bd e7ae 20bf
00000280: 0d7c cfbb 7f27 183e 14e8 cb3d 5ce3 6abf
00000290: 7658 663e b328 893e bf6b 7b3f 2898 88bd
000002a0: 04e0 933e e509 2c3f d57e a1be 33e0 b3be
000002b0: 48ba 10bf 4f5c 503f 861c 8bbe 9e73 8ebd
000002c0: 5f3a a3bd 99e4 e0be 201d f83c f3ce edbe
000002d0: 95c1 dfbf 8bc6 3e3d 9fab 953e 525a 8d3d
000002e0: fec8 0e3f 3749 3dbf f18c 93bd 24ae f4be
000002f0: 7cdd 39bc 0b3f 00c0 a7a3 1940 228a 00bf
00000300: ad39 9c3d af6d 0a3e 3166 383f 5742 d6bc
00000310: c55e b4bf 986b 04bf 25ef 2fbf 07f5 aa3e
00000320: 622e 9ebe 2257 e5be ff49 b0bd 6906 e0bf
00000330: b350 2140 4686 93be 5d22 a6bd e000 c1be
00000340: b3a5 21bf 206b 83bd dbc9 7f40 dc47 ac3f
00000350: 506a 603d 6e4f 9dbd d542 e9be 6fec 223f
00000360: ec0c e93d 5ab5 ab3e 6db0 3540 c75f 18bd
00000370: c55c 47be e879 66bf 26c2 e8be 668f 93bd
00000380: e4d3 9bbf a820 2f3f 221b 0cbf 88a3 9d3e
00000390: 9137 80bd 0d11 4abd a700 1e3d 873a 02c0
000003a0: 25fe 4bbe 5f60 cdbe b08e 94be 22d5 803e
000003b0: 0fa1 b3bf 83cd 95be 8185 84c0 9f98 e0bf
000003c0: 4e96 3cbe 6eeb 133e bbc9 c63e 52cd 6bbe
000003d0: 04fa dd3b f146 983c 6c18 1340 8624 a73d
000003e0: 45fa 27be 98d3 6dbe 0b8f 83bf 9ed1 443e
000003f0: 7031 b33f 68e7 70bf f693 54bf 2674 953c

fc1.bias f4 [100]
0.08397508 0.22699815 -0.12562296 -0.39143428 -0.07614135 0.039197933 -0.01036691 -0.15077312
0.08639994 -0.078666985 -0.37151894 0.30734172 0.115655206 -0.0358926 0.055146474 0.044422954
0.33724427 -0.07989262 -0.047647018 -0.28485426 -0.22202368 0.06999132 -0.18434794 0.22753507
-0.1687305 -0.04316829 -0.5328722 0.18287185 0.30487782 -0.07687913 -0.10200244 -0.1852157
0.23218442 -0.41271818 0.13196953 -0.040437892 0.10608695 0.085692 -0.14983414 -0.38048294
-0.10071378 -0.11479685 0.2159793 -0.15358537 0.023554143 -0.032904517 -0.20265074 -0.16737315
0.009598594 -0.18938124 -0.11878659 -0.17323983 -0.14148739 0.064030394 0.23101728 -0.596175
-0.14001615 -0.3631534 0.4400699 -0.13223882 0.14616737 -0.33242074 0.12887688 0.030174727
-0.23978958 -0.28350338 -0.0082543455 0.23318017 0.045176957 -0.42791244 -0.34427792 -0.22876549
0.15080851 -0.11468757 -0.44043684 -0.35069588 -0.06373712 -0.28756338 0.091995955 -0.34720424
-0.092521265 0.12947103 -0.17930515 0.29194576 -0.45315424 -0.44441617 0.1395044 -0.3549677
-0.29517215 -0.23510174 -0.48566923 0.18688957 -0.14536977 -0.21424454 -0.16108571 0.39846557
-0.05184703 -0.2628276 0.09628063 0.23302686
00000000: 20fb ab3d 3472 683e 4ea3 00be 136a c8be
00000010: ffef 9bbd 038e 203d f9d9 29bc 4564 1abe
00000020: 74f2 b03d 281c a1bd bb37 bebe e55b 9d3e
00000030: a3dc ec3d 1e04 13bd 45e1 613d d8f4 353d
00000040: 48ab ac3e be9e a3bd 8529 43bd 6bd8 91be
00000050: 2d5a 63be 9c57 8f3d b5c5 3cbe f4fe 683e
00000060: b0c7 2cbe 3cd1 30bd 506a 08bf c242 3b3e
00000070: f218 9c3e ce72 9dbd a8e6 d0bd 2fa9 3dbe
00000080: c1c1 6d3e cc4f d3be 0523 073e 34a2 25bd
00000090: 1d44 d93d 4a7f af3d 1f6e 19be a9ce c2be
000000a0: 0743 cebd 9c1a ebbd ad29 5d3e 7c45 1dbe
000000b0: 9ef4 c03c e3c6 06bd ad83 4fbe de63 2bbe
000000c0: 6c43 1d3c 28ed 41be 6246 f3bd c865 31be
000000d0: 12e2 10be 5e22 833d cb8f 6c3e ed9e 18bf
000000e0: 6560 0fbe 3eef b9be d850 e13e 9d69 07be
000000f0: e6ac 153e 0d33 aabe 4df8 033e fd30 f73c
00000100: 668b 75be 5b27 91be 3c3d 07bc c8c6 6e3e
00000110: 790b 393d 5717 dbbe 3245 b0be 8041 6abe
00000120: 8c6d 1a3e 51e1 eabd f080 e1be 698e b3be
00000130: 9b88 82bd 823b 93be 6068 bc3d c1c4 b1be
00000140: ca7b bdbd 0e94 043e c59b 37be ea79 953e
00000150: d503 e8be 848a e3be 3eda 0e3e 54be b5be
00000160: ce20 97be 83be 70be a3a9 f8be fb5f 3f3e
00000170: d0db 14be ec62 5bbe a7f3 24be ae03 cc3e
00000180: 8d5d 54bd 5791 86be c72e c53d 989e 6e3e

fc2.weight f4 [50, 100]
0.67819726 -1.5079663 0.38965535 -0.5626461 -0.5571177 0.6443991 0.4900474 1.3356154
0.34960938 -0.49495795 0.11598833 0.55975217 -0.15046147 1.024922 0.4661668 0.20757668
0.33154026 -0.421103 -0.8028475 0.06098541 -0.20225406 -0.84636784 -0.4011586 -0.8755592
-0.18542096 0.03442877 -0.7336337 -0.28179708 0.43338192 -0.9042817 0.069834135 0.70961237
0.15157627 0.00780565 0.44579598 -0.865794 -2.421396 0.29630813 -0.10788661 0.025189715
0.21092968 0.05883129 0.09193182 -0.01643937 -0.39419037 -0.12315169 -0.9655044 0.9981326
-0.38886216 -0.63811994 0.26472104 0.40046564 0.6352763 1.2736163 0.15914297 -0.4354015
-1.0895051 0.21449198 -0.11812463 0.77211905 -0.17291045 -0.20965168 0.26724517 0.03459081
-0.6452147 -0.2083617 0.21883579 -0.25260165 -0.10559843 0.15258542 0.37364474 -0.60416377
-0.44702882 -0.08111703 -0.1256399 -0.31503543 0.0996435 -0.3692675 -0.2758054 0.6517383
-0.21424507 -0.25313938 0.11888137 -0.59630114 -0.22392519 0.59423393 0.37084022 -0.19843712
-0.2062958 -0.23880737 0.48089755 0.095878765 -0.44777125 0.55095935 0.5281216 0.55640244
0.03292448 0.21344292 -0.015708197 -0.41018772 0.51306826 0.13676596 -0.368722 -0.46151462
-0.39988264 0.3122827 0.23750922 0.014111403 0.5831417 -0.32328114 -0.22043318 0.081208296
0.099022046 -0.34086972 0.25644127 -0.12159259 -0.12846376 0.39885858 0.13377672 -0.72339207
0.15270863 0.12867865 -0.3188898 -0.5242407 0.006820944 -0.21190193 -1.4279616 0.039614838
0.7035465 -0.3272599 -1.196129 -0.596873 0.08358626 0.4160427 0.44069088 0.016351696
0.25867644 -0.4792041 -0.36319706 -1.3522843 0.119953446 -0.4158119 0.29072833 -0.35469913
-0.15387239 -0.5325504 -0.23993078 -0.4847062 0.12776847 -0.3065248 0.62448704 0.25325733
0.02197486 0.41324854 0.094279714 -0.35713676 -0.59649664 0.29413825 0.16269661 -0.8206999
0.29905874 -0.4175977 -0.41163173 0.09343855 -0.2955902 -0.5795615 -0.09450939 0.13767889
-0.011003426 0.36781135 -0.65969104 -0.3158182 -0.275816 -0.20419812 -0.23897307 0.2390278
0.53392917 -0.9474798 0.19608556 0.16245507 -0.45335653 -0.10256695 0.07218187 -0.102650516
0.5862021 -0.016966287 0.06206796 -0.4091162 -0.61454576 -0.07835453 0.08384362 -0.008891837
-0.65309197 0.15739863 -0.087828636 -0.13329124 0.33769405 -0.7525325 0.3322163 0.6253173
-0.33285326 0.28258952 -0.39019525 0.066997744 -0.17620632 0.23606601 -0.92427176 -0.15259536
0.3631692 -0.36951298 -0.35363477 -0.5331893 0.19129504 -0.01373143 -0.27123654 0.33803838
-0.12010545 -0.55167294 0.37203836 -0.25642458 -0.0652515 -0.2457459 -0.7852676 0.18239823
0.15298937 0.14114355 0.28952435 -0.2756773 -0.2837791 0.043094557 0.007354187 0.15449704
-0.100741126 -0.6737229 -0.21181913 -0.54403394 -0.1849018 -0.33263293 0.097927585 0.41656783
-0.18689117 -0.15923809 -0.56694 -0.19480552 -0.88079447 -0.058066152 -0.49001396 -1.4931202
-0.018362531 -0.41528338 0.0046427716 -0.015381778 -0.09180822 -1.009148 -0.27478278 -0.4615136
00000000: 569e 2d3f 0a05 c1bf e880 c73e 9309 10bf
00000010: 449f 0ebf 57f7 243f 7ee7 fa3e 72f5 aa3f
00000020: 0000 b33e 216b fdbe 4a8b ed3d eb4b 0f3f
00000030: 9212 1abe a530 833f 6aad ee3e fb8e 543e
00000040: a5bf a93e d09a d7be 6a87 4dbf d6cb 793d
00000050: b01b 4fbe 90ab 58bf a964 cdbe a624 60bf
00000060: fede 3dbe 2f05 0d3d 6bcf 3bbf b547 90be
00000070: 3ce4 dd3e 017f 67bf 3305 8f3d 28a9 353f
00000080: cf36 1b3e 8ac6 ff3b 5f3f e43e ada4 5dbf
00000090: 27f8 1ac0 b3b5 973e a8f3 dcbd a95a ce3c
000000a0: f3fd 573e 14f9 703d c046 bc3d dcab 86bc
000000b0: 52d3 c9be f436 fcbd 4c2b 77bf 9e85 7f3f
000000c0: f118 c7be d45b 23bf 8489 873e d509 cd3e
000000d0: 78a1 223f dc05 a33f 60f6 223e f2ec debe
000000e0: e774 8bbf c9a3 5b3e 53eb f1bd 98a9 453f
000000f0: 700f 31be eeae 56be 5cd4 883e 18af 0d3d
00000100: ca2c 25bf c55c 55be 7d16 603e 0155 81be
00000110: fd43 d8bd 5a3f 1c3e 5d4e bf3e 7aaa 1abf
00000120: f6e0 e4be af20 a6bd bfa7 00be 534c a1be
00000130: e411 cc3d a110 bdbe 5e36 8dbe 52d8 263f
00000140: 0f63 5bbe 7c9b 81be 1378 f33d 31a7 18bf
00000150: a54c 65be b71f 183f c5de bd3e 1a33 4bbe
00000160: 353f 53be eb89 74be 3438 f63e 165c c43d
00000170: 4642 e5be ac0b 0d3f fa32 073f 6470 0e3f
00000180: d2db 063d c890 5a3e 7aae 80bc 2004 d2be
00000190: 7158 033f 600c 0c3e 21c9 bcbe a54b ecbe
000001a0: 6bbd ccbe 85e3 9f3e 9e35 733e 8433 673c
000001b0: c648 153f 1b85 a5be 3cb9 61be 8950 a63d
000001c0: 12cc ca3d 7a86 aebe 454c 833e 8905 f9bd
000001d0: 018c 03be 3137 cc3e c4fc 083e 3930 39bf
000001e0: a75f 1c3e 56c4 033e 8645 a3be a334 06bf
000001f0: 3a82 df3b d2fc 58be 72c7 b6bf 2b43 223d
00000200: a01b 343f 9c8e a7be c11a 99bf abcc 18bf
00000210: 462f ab3d 8c03 d53e 3ca2 e13e fef3 853c
00000220: 3d71 843e 3d5a f5be f7f4 b9be a717 adbf
00000230: 27aa f53d 4ce5 d4be 58da 943e 209b b5be
00000240: b990 1dbe 3955 08bf 6ab0 75be 692b f8be
00000250: bdd5 023e d2f0 9cbe 62de 1f3f f2aa 813e
00000260: 9f04 b43c 5095 d33e b915 c13d a1da b6be
00000270: 01b4 18bf 4a99 963e f199 263e 6319 52bf
00000280: 3a1e 993e 5ecf d5be 65c1 d2be b65c bf3d
00000290: 9957 97be 245e 14bf 248e c1bd b2fb 0c3e
000002a0: b747 34bc c551 bc3e 83e1 28bf ecb2 a1be
000002b0: c137 8dbe 5019 51be 5bb5 74be b4c3 743e
000002c0: 95af 083f 098e 72bf a7ca 483e 9f5a 263e
000002d0: 591e e8be 9f0e d2bd 17d4 933d 6f3a d2bd
000002e0: 5711 163f e2fc 8abc f93a 7e3d ae77 d1be
000002f0: df52 1dbf 5778 a0bd 34b6 ab3d 11af 11bc
00000300: 0931 27bf 1b2d 213e 80df b3bd 807d 08be
00000310: 3ce6 ac3e f8a5 40bf 4118 aa3e cb14 203f
00000320: be6b aabe 93af 903e acc7 c7be 1d36 893d
00000330: 6e6f 34be 4abb 713e 139d 6cbf f541 1cbe
00000340: 50f1 b93e ce30 bdbe 9e0f b5be 187f 08bf
00000350: d9e2 433e cbf9 60bc 84df 8abe 5e13 ad3e
00000360: d9f9 f5bd 703a 0dbf d07b be3e 154a 83be
00000370: 94a2 85bd d0a4 7bbe 4c07 49bf 9ac6 3a3e
00000380: 3fa9 1c3e ef87 103e 893c 943e 9325 8dbe
00000390: 7f4b 91be eb83 303d 64fb f03b 7934 1e3e
000003a0: 5d51 cebd 1b79 2cbf 1de7 58be cf45 0bbf
000003b0: e656 3dbe dd4e aabe 428e c83d 6148 d53e
000003c0: 6660 3fbe 4f0f 23be fb22 11bf 197b 47be
000003d0: bf7b 61bf c6d6 6dbd 1ce3 fabe 901e bfbf
000003e0: 056d 96bc 06a0 d4be 6422 983b da03 7cbc
000003f0: f305 bcbd c32b 81bf 54b0 8cbe 834b ecbe

fc2.bias f4 [50]
0.03849871 0.030469827 -0.42820275 -0.21180521 0.39475656 -0.20358911 -0.2757506 0.44180483
-0.014636651 0.5570555 -0.07359632 0.5244566 0.16160998 0.15134336 -0.07031192 0.48003903
0.20878518 -0.4680948 0.08889202 -0.65382105 0.031856727 -0.20756915 0.37749392 0.040496103
0.2110958 0.058819994 -0.24943615 -0.8315494 0.19557235 -0.13716997 0.1730608 0.24253154
0.27206394 0.24165006 0.36995155 -0.016576892 -0.26531875 -0.12565787 0.35650277 0.10996892
-0.22495465 -0.3444435 -0.49990648 -1.1002574 0.40034515 0.14604291 -0.4448094 -0.09791961
0.03770736 -0.034546107
00000000: d3b0 1d3d dc9b f93c 643d dbbe 77e3 58be
00000010: 881d ca3e aa79 50be 2f2f 8dbe 3e34 e23e
00000020: 90ce 6fbc 309b 0e3f abb9 96bd ca42 063f
00000030: 167d 253e c1f9 1a3e b2ff 8fbd adc7 f53e
00000040: c8cb 553e 1faa efbe 050d b63d d160 27bf
00000050: 337c 023d 028d 54be e246 c13e 3edf 253d
00000060: 7f29 583e 3ced 703d 316c 7fbe 6ce0 54bf
00000070: 1e44 483e 4976 0cbe da36 313e 305a 783e
00000080: f74b 8b3e 1d73 773e 4a6a bd3e 43cc 87bc
00000090: dcd7 87be 75ac 00be 8887 b63e 6337 e13d
000000a0: 835a 66be e65a b0be bef3 ffbe 3cd5 8cbf
000000b0: 0afa cc3e 468c 153e 0fbe e3be 148a c8bd
000000c0: 0873 1a3d 3880 0dbd

out.weight f4 [4, 50]
-0.95999914 -1.5261977 1.2431954 1.6843269 0.8704039 -1.5909692 0.20468354 -0.56166357
-0.24008867 1.0457869 -0.18441172 0.32593033 -0.08038115 0.26575258 -1.7347919 0.12256515
-1.029198 -1.1265411 0.14633532 1.0385665 -0.7511868 0.26454538 0.24251923 0.5565002
-0.20162372 -0.35066462 1.2076529 0.4078005 0.16355643 0.6706388 -0.9752574 4.618485
1.2053468 3.2515554 1.5733365 0.059788205 -1.6445856 0.048453737 1.0124797 -0.77430487
-0.751064 0.17845985 -0.7041586 0.38983268 0.009613102 0.6730351 -0.48445156 -0.5362785
-0.065675564 0.16810781 -0.77147406 0.5580348 0.72242314 -0.46275273 1.0147383 -1.0866001
2.2684398 0.6160379 0.22756723 0.7817661 -0.24635737 -1.4342314 -1.1167262 -1.8594873
0.37071592 -0.76467615 -3.1349533 0.4241212 -0.335557 0.47007963 0.4666714 0.22702682
0.7229933 1.6889579 0.37993002 -0.031152915 5.718979 0.034459565 -0.49566093 -0.1180363
0.91889495 0.9202933 -0.2739337 -0.06551407 -1.043836 -0.024331575 0.05026533 0.3506297
0.2641475 1.1194237 2.1651084 0.5540292 -0.062196713 0.9724325 -0.45982063 0.013015531
0.7136489 -0.99654996 0.69981205 -0.7985927 0.76654226 0.034819927 0.35781813 1.5560373
1.0013931 -0.41197738 0.03758609 2.0106487 -0.14697693 0.09200413 0.97002923 0.87682414
-2.4882205 0.9577954 -0.29258093 -0.32004288 0.29094374 0.055706594 0.4466005 0.73355114
-1.2295455 -0.64249456 1.8626595 0.31699917 2.3952744 1.1400974 -2.2624943 0.39171442
-2.94216 -0.49014565 -0.32001907 1.7909931 -0.06923297 0.25270927 0.352418 0.023066465
-0.37161416 -1.2241573 -0.16571198 -1.025667 0.2038981 0.11040056 -0.77029926 1.1985062
-0.7713471 0.4451836 0.52235484 0.40256405 -0.41535434 -1.3251585 1.0865812 -0.22332054
0.42243755 -0.06793419 1.3976446 0.07713574 0.04593708 -0.9904871 0.16653448 0.1838612
-0.37036425 -1.9072493 -1.5821086 -0.5355749 0.03568444 0.16695434 -0.5326014 1.0640339
-1.4333622 0.40421885 0.006560138 -0.89046466 -1.4469734 -0.80878955 0.20330635 0.6744861
2.558938 2.2054343 0.6033985 -2.996721 0.45562 -2.25111 0.27571005 0.17012852
1.984211 -0.08284287 -0.53522223 -0.14676093 -0.8244494 -0.5462065 1.3870187 -0.36422926
0.9517614 0.46304128 0.63624614 1.7788869 -0.5535827 -0.11167606 -0.99151057 -0.4795354
00000000: 81c2 75bf 725a c3bf 0721 9f3f 0698 d73f
00000010: cad2 5e3f e1a4 cbbf 9098 513e 2fc9 0fbf
00000020: ced9 75be 58dc 853f 6dd6 3cbe 57e0 a63e
00000030: df9e a4bd b910 883e a90d debf 7003 fb3d
00000040: c3bc 83bf 8032 90bf edd8 153e bfef 843f
00000050: c74d 40bf 7e72 873e f656 783e cc76 0e3f
00000060: 7376 4ebe 508a b3be 5f94 9a3f 3acb d03e
00000070: 567b 273e fcae 2b3f 78aa 79bf a1ca 9340
00000080: ce48 9a3f 7c19 5040 1763 c93f 7ae4 743d
00000090: c881 d2bf 6d77 463d ef98 813f d838 46bf
000000a0: bb45 40bf 2ebe 363e bd43 34bf 2698 c73e
000000b0: 4680 1d3c 074c 2c3f 090a f8be 8c49 09bf
000000c0: e980 86bd 7424 2c3e 537f 45bf 5edb 0e3f
000000d0: b9f0 383f eded ecbe f2e2 813f b615 8bbf
000000e0: 1e2e 1140 a9b4 1d3f 6207 693e d321 483f
000000f0: 1b45 7cbe e594 b7bf e2f0 8ebf ae03 eebf
00000100: 7ace bd3e d1c1 43bf 13a3 48c0 6a26 d93e
00000110: 21ce abbe 47ae f03e 8eef ee3e b879 683e
00000120: 1716 393f c62f d83f 3086 c23e 6634 ffbc
00000130: e001 b740 7925 0d3d 45c7 fdbe 04bd f1bd
00000140: b33c 6b3f 5798 6b3f 0a41 8cbe 3e2c 86bd
00000150: 6b9c 85bf 0353 c7bc 05e3 4d3d bc85 b33e
00000160: 573e 873e 4749 8f3f 2391 0a40 dcd4 0d3f
00000170: fbc1 7ebd 56f1 783f 9c6d ebbe 183f 553c
00000180: b2b1 363f e61d 7fbf e226 333f 9270 4cbf
00000190: 1d3c 443f 579f 0e3d f033 b73e 3b2c c73f
000001a0: a62d 803f b3ee d2be dff3 193d 78ae 0040
000001b0: 1f81 16be a96c bc3d d653 783f 8c77 603f
000001c0: 013f 1fc0 1432 753f 2bcd 95be a9dc a3be
000001d0: 94f6 943e 992c 643d d2a8 e43e 02ca 3b3f
000001e0: bf61 9dbf 867a 24bf a06b ee3f b74d a23e
000001f0: 2d4c 1940 b6ee 913f b5cc 10c0 cb8e c83e
00000200: 594c 3cc0 5ff4 fabe 8ad9 a3be 433f e53f
00000210: 04ca 8dbd 1c63 813e 2270 b43e e2f5 bc3c
00000220: 3644 bebe 30b1 9cbf 67b0 29be 0e49 83bf
00000230: aaca 503e b019 e23d 5532 45bf a768 993f
00000240: 0177 45bf 1bef e33e 0cb9 053f e01c ce3e
00000250: 53a9 d4be cb9e a9bf 1815 8b3f 24ae 64be
00000260: bc49 d83e 1521 8bbd 05e6 b23f 58f9 9d3d
00000270: 8528 3c3d 9090 7dbf 0488 2a3e 1c46 3c3e
00000280: 62a0 bdbe bf20 f4bf 8982 cabf 701b 09bf
00000290: d929 123d 14f6 2a3e 9158 08bf 4332 883f
000002a0: 6a78 b7bf c6f5 ce3e 6df6 d63b 7ef5 63bf
000002b0: 6d36 b9bf d50c 4fbf 8a2f 503e 1fab 2c3f
000002c0: a4c5 2340 d625 0d40 5378 1a3f 47ca 3fc0
000002d0: 0647 e93e 3012 10c0 de29 8d3e 2c36 2e3e
000002e0: a0fa fd3f 86a9 a9bd 5304 09bf 7f48 16be
000002f0: 1e0f 53bf 30d4 0bbf d489 b13f 427c babe
00000300: a3a6 733f bf13 ed3e 07e1 223f 91b2 e33f
00000310: 99b7 0dbf 6bb6 e4bd a3d3 7dbf aa85 f5be

out.bias f4 [4]
0.0059742834 0.26786187 0.35637733 0.45096657
00000000: ecc3 c33b 3125 893e 1777 b63e 17e5 e63e

fc1.weight f4 [100, 7]
-3.6214745 -3.568617 -0.22046661 -0.039599687 -0.02709732 -0.124626346 -0.008428616 1.1289992
1.8138245 0.081577726 0.17242809 -0.31505173 0.0909066 0.002404352 1.2914969 0.31256858
0.18566641 -0.19863191 -0.50549257 0.98957217 0.09236233 1.6201093 0.64029455 -0.8192518
-0.5409216 -0.114297606 -0.04467987 0.03495536 -1.9122618 2.9144702 0.3396362 -0.04999701
-0.37286884 -0.580023 0.07197675 0.19974503 0.064447954 -0.7936873 -0.16766132 -0.41170907
-0.6419933 0.13339755 -5.514651 -0.044480566 0.020427182 -0.057785828 -0.061582647 0.038306266
0.10664362 -2.3941183 0.6681299 0.3380972 -0.16415657 -0.08491845 0.2523745 0.00076478824
-1.693614 0.3078389 -0.59765935 0.010397062 -0.02914139 -0.6866908 -0.13050225 1.2022327
0.8781173 -0.22259153 -0.47718185 0.5004694 -0.12328152 0.022381844 -0.38717577 0.47321516
-0.5514061 -0.5705332 -0.13793644 -0.47983128 0.0055167177 -1.800008 0.9534193 -0.677567
0.25819552 0.2395072 -0.5284649 0.043412082 0.744697 1.9056127 -0.35232237 -0.029104715
0.30325162 0.17350541 -0.01573459 -2.850893 -1.3216211 0.5004904 -0.012725699 -0.20351382
-0.45606834 0.12444919 -1.1334729 -1.2468886 -0.25961277 -0.013601933 -0.22423066 0.13479081
0.52812445 0.0077268877 0.5815303 0.08257374 -0.15854777 -1.0843585 -0.963966 0.5481755
0.8522702 -0.6557336 -0.35223213 0.34855342 -0.76814353 0.08603869 0.0011276209 -3.0004175
-0.9216228 0.009093023 0.017880758 0.15263943 -0.71097976 -0.057694186 0.4355956 -0.3340948
-0.8662381 -0.0075415084 0.06606771 1.3414574 -0.12472097 2.4261012 -2.139488 0.7055961
-0.32576087 0.10190699 -0.11412418 0.102386385 2.2915971 0.055473037 0.6340107 -0.33496478
0.033721175 0.6756784 -0.017091155 -0.17688067 -0.73592436 -1.0209869 0.067354426 0.23182279
0.28130293 0.0045569893 -1.529558 1.8847066 0.0103497505 -0.33168975 -0.12103517 -0.6276703
-0.0063319053 0.1485893 0.09956332 -0.917528 0.2249474 0.26789182 0.98210967 -0.06669654
0.28881904 0.67202216 -0.3154236 -0.35132053 -0.5653476 0.81391114 -0.2717006 -0.06955608
-0.079700805 -0.43924347 0.030287476 -0.46446815 -1.7481045 0.046576045 0.29232678 0.06901964
0.557754 -0.73939925 -0.07204607 -0.47789115 -0.011344404 -2.0038328 2.400627 -0.5021056
0.076282464 0.1351842 0.72031385 -0.026154822 -1.4091445 -0.51726454 -0.68724513 0.3338981
-0.3089505 -0.4479279 -0.08607851 -1.7501909 2.5205755 -0.28813362 -0.08112014 -0.37695953
-0.6314314 -0.0641693 3.9967215 1.3459516 0.0547892 -0.07681146 -0.45558706 0.6364262
0.11379395 0.3353703 2.8388886 -0.0372006 -0.19469056 -0.9003022 -0.4546095 -0.07205054
-1.2174299 0.68437815 -0.54708034 0.30801034 -0.06252739 -0.040378552 0.0381319 -2.0348213
-0.19921306 -0.4011233 -0.29015124 0.25162795 -1.4033629 -0.29258606 -4.1409326 -1.7545625
-0.18405873 0.14454019 0.38829023 -0.2266308 0.00792719 0.018588563 2.2983692 0.08161336
-0.16404034 -0.23225196 -1.0278056 0.19220653 1.3999535 -0.94103605 -0.83037996 0.018243974
00000000: 3dc6 67c0 3964 64c0 00c2 61be 4833 22bd
00000010: 33fb ddbc 193c ffbd 2e18 0abc 0c83 903f
00000020: 672b e83f 3912 a73d fd90 303e 764e a1be
00000030: 3d2d ba3d 5592 1d3b c54f a53f fd08 a03e
00000040: 561f 3e3e 2a66 4bbe f667 01bf 9a54 7d3f
00000050: 7628 bd3d be5f cf3f 58ea 233f 7cba 51bf
00000060: d779 0abf dd14 eabd 3d02 37bd 5a2d 0f3d
00000070: ffc4 f4bf ae86 3a40 cce4 ad3e aac9 4cbd
00000080: aae8 bebe 637c 14bf 8c68 933d f689 4c3e
00000090: 4afd 833d 172f 4bbf 69af 2bbe 88cb d2be
000000a0: ac59 24bf 5e99 083e 0578 b0c0 4131 36bd
000000b0: e856 a73c d5b0 6cbd 163e 7cbd 08e7 1c3d
000000c0: f867 da3d 3c39 19c0 900a 2b3f 141b ad3e
000000d0: a918 28be b9e9 adbd 3b37 813e 127c 483a
000000e0: 58c8 d8bf 0f9d 9d3e 3400 19bf 7058 2a3c
000000f0: edb9 eebc f8ca 2fbf 62a2 05be c3e2 993f
00000100: 4ccc 603f 09ef 63be 2e51 f4be c31e 003f
00000110: 067b fcbd 215a b73c e73b c6be 4249 f23e
00000120: f328 0dbf 770e 12bf 363f 0dbe 72ac f5be
00000130: 95c5 b43b aa66 e6bf 4a13 743f 0875 2dbf
00000140: 3432 843e 6041 753e 7a49 07bf ded0 313d
00000150: 76a4 3e3f 1eeb f33f 9963 b4be 036d eebc
00000160: cc43 9b3e 67ab 313e d4e5 80bc 0875 36c0
00000170: e12a a9bf 2420 003f 737f 50bc ed65 50be
00000180: ca81 e9be 38df fe3d a415 91bf 0c9a 9fbf
00000190: f7eb 84be a4da 5ebc b99c 65be 9a06 0a3e
000001a0: 2a33 073f d531 fd3b 2bdf 143f 6c1c a93d
000001b0: 595a 22be 42cc 8abf 7ac6 76bf 3b55 0c3f
000001c0: 612e 5a3f 28de 27bf c557 b4be 9875 b23e
000001d0: 0ea5 44bf 0d35 b03d aecc 933a d706 40c0
000001e0: 79ef 6bbf e7fa 143c ab7a 923c 834d 1c3e
000001f0: c502 36bf bd50 6cbd 6306 df3e 790e abbe
00000200: c8c1 5dbf c21e f7bb 824e 873d e0b4 ab3f
00000210: b56d ffbd 3e45 1b40 5fed 08c0 f2a1 343f
00000220: 21ca a6be 9db4 d03d f0b9 e9bd f4af d13d
00000230: 87a9 1240 b237 633d 864e 223f 8180 abbe
00000240: 371f 0a3d 42f9 2c3f c002 8cbc 3520 35be
00000250: 8a65 3cbf b3af 82bf 1ef1 893d f462 6d3e
00000260: f006 903e cc52 953b 8ec8 c3bf 113e f13f
00000270: 0092 293c 3dd3 a9be 4ae1 f7bd 00af 20bf
00000280: df7b cfbb cb27 183e dbe7 cb3d 1de3 6abf
00000290: 9c58 663e 1e29 893e 8a6b 7b3f 3298 88bd
000002a0: 17e0 933e a509 2c3f 347f a1be 49e0 b3be
000002b0: 9fba 10bf 7b5c 503f 571c 8bbe 6b73 8ebd
000002c0: 2d3a a3bd 85e4 e0be 711d f83c c5ce edbe
000002d0: e3c1 dfbf 86c6 3e3d dbab 953e 2b5a 8d3d
000002e0: f7c8 0e3f 4549 3dbf e48c 93bd 26ae f4be
000002f0: e1dd 39bc cc3e 00c0 dfa3 1940 fe89 00bf
00000300: fb39 9c3d ba6d 0a3e 7d66 383f a342 d6bc
00000310: d95e b4bf 736b 04bf 4cef 2fbf b1f4 aa3e
00000320: c32e 9ebe ce56 e5be ee49 b0bd 4106 e0bf
00000330: 1c51 2140 4086 93be 5122 a6bd d700 c1be
00000340: 7da5 21bf 326b 83bd 49ca 7f40 2448 ac3f
00000350: a46a 603d 544f 9dbd b542 e9be d4ec 223f
00000360: cd0c e93d a8b5 ab3e 5ab0 3540 a85f 18bd
00000370: f65c 47be 347a 66bf 94c2 e8be 3c8f 93bd
00000380: bed4 9bbf 6833 2f3f 750d 0cbf 88b3 9d3e
00000390: 5c0e 80bd fb63 25bd 3230 1c3d 833a 02c0
000003a0: 82fe 4bbe 0860 cdbe b48e 94be 61d5 803e
000003b0: 65a1 b3bf d7cd 95be 8582 84c0 8195 e0bf
000003c0: e479 3cbe 5802 143e facd c63e e811 68be
000003d0: 0be1 013c 0b47 983c 7b18 1340 e824 a73d
000003e0: 31fa 27be 75d3 6dbe 228f 83bf cad1 443e
000003f0: ad31 b33f bde7 70bf c893 54bf 6374 953c

fc1.bias f4 [100]
0.08397446 0.22752123 -0.12562399 -0.39143452 -0.07609915 0.0391981 -0.010366888 -0.15077233
0.08640037 -0.078666665 -0.37152055 0.3075618 0.11597036 -0.03604144 0.05514683 0.044423196
0.33728984 -0.079892285 -0.047646698 -0.2849543 -0.2222232 0.06999193 -0.18434766 0.22753572
-0.16873121 -0.04316815 -0.53287494 0.18287243 0.30487657 -0.07687852 -0.102001905 -0.18521638
0.23230632 -0.4127164 0.13205697 -0.04043788 0.10608705 0.085692555 -0.14983504 -0.3806041
-0.10071443 -0.114796795 0.2162804 -0.15358149 0.023554195 -0.032904588 -0.202692 -0.16737224
0.009598546 -0.18938129 -0.118787326 -0.17324032 -0.1414889 0.0641409 0.23116517 -0.5961752
-0.14014865 -0.3631521 0.44007194 -0.13223825 0.14616638 -0.33242285 0.12900713 0.030717468
-0.23978898 -0.2835053 -0.008254274 0.23070638 0.045193855 -0.4279126 -0.3442812 -0.22876656
0.1508081 -0.11468801 -0.44043556 -0.35069472 -0.06373718 -0.28756437 0.0919965 -0.34720188
-0.09252103 0.12956193 -0.1793051 0.292056 -0.45315516 -0.44441417 0.13950554 -0.3549654
-0.2951729 -0.23510107 -0.48566955 0.18672502 -0.14536917 -0.21327256 -0.16108692 0.39871988
-0.051846966 -0.2627428 0.09637961 0.2330283
00000000: cdfa ab3d 53fb 683e 93a3 00be 1b6a c8be
00000010: dfd9 9bbd 308e 203d e1d9 29bc 1064 1abe
00000020: adf2 b03d fd1b a1bd f137 bebe be78 9d3e
00000030: de81 ed3d 30a0 13bd a4e1 613d 19f5 353d
00000040: 41b1 ac3e 919e a3bd 2f29 43bd 88e5 91be
00000050: 7b8e 63be ee57 8f3d a2c5 3cbe 20ff 683e
00000060: e0c7 2cbe 16d1 30bd 7e6a 08bf e942 3b3e
00000070: c818 9c3e 7c72 9dbd 60e6 d0bd 5da9 3dbe
00000080: b5e1 6d3e 904f d3be f139 073e 31a2 25bd
00000090: 2b44 d93d 947f af3d 5b6e 19be 8ade c2be
000000a0: 5e43 cebd 951a ebbd 9c78 5d3e 7744 1dbe
000000b0: baf4 c03c f6c6 06bd 7e8e 4fbe a163 2bbe
000000c0: 3843 1d3c 2bed 41be c546 f3bd e965 31be
000000d0: 77e2 10be 4e5c 833d 90b6 6c3e f09e 18bf
000000e0: 2183 0fbe 12ef b9be 1c51 e13e 7769 07be
000000f0: a4ac 153e 5433 aabe 721a 043e 33a3 fb3c
00000100: 3e8b 75be 9b27 91be ef3c 07bc 4b3e 6c3e
00000110: 311d 393d 5c17 dbbe a045 b0be c841 6abe
00000120: 706d 1a3e 8ce1 eabd c580 e1be 428e b3be
00000130: a388 82bd a33b 93be a968 bc3d 72c4 b1be
00000140: aa7b bdbd e2ab 043e c29b 37be 5d88 953e
00000150: f403 e8be 418a e3be 8ada 0e3e 06be b5be
00000160: e720 97be 56be 70be aea9 f8be d834 3f3e
00000170: a8db 14be 1f64 5abe f8f3 24be 0325 cc3e
00000180: 7c5d 54bd 3986 86be ac62 c53d f89e 6e3e

fc2.weight f4 [50, 100]
0.6781972 -1.5079573 0.38965532 -0.5626416 -0.5571162 0.6443954 0.49005046 1.3356162
0.34960988 -0.49495596 0.11598888 0.55975664 -0.1504609 1.0249326 0.46616983 0.2075771
0.3315407 -0.4211057 -0.80284256 0.06098548 -0.20225291 -0.8463718 -0.40115604 -0.8755544
-0.18542202 0.034428976 -0.7336296 -0.28179467 0.43338132 -0.90427786 0.069834724 0.7096089
0.15157698 0.0078056776 0.44579697 -0.865797 -2.4213934 0.2963084 -0.107886374 0.025189783
0.21093133 0.058831148 0.09193242 -0.016439257 -0.3941912 -0.123151876 -0.9655038 0.9981314
-0.38886255 -0.63811904 0.26472384 0.40046757 0.6352759 1.2736273 0.1591438 -0.43540484
-1.0894965 0.21449272 -0.11812497 0.77212226 -0.172911 -0.20965135 0.2672481 0.034591027
-0.6452179 -0.20836091 0.21883643 -0.25260028 -0.1055983 0.15258579 0.3736425 -0.6041622
-0.44703078 -0.08111715 -0.12563965 -0.31503323 0.099643044 -0.36927047 -0.27580437 0.6517387
-0.21424536 -0.25313672 0.11888195 -0.59630036 -0.22392519 0.594238 0.3708381 -0.19843672
-0.20629708 -0.23880847 0.48089817 0.095879 -0.44777286 0.55096495 0.52811855 0.55640686
0.032924704 0.2134422 -0.015708122 -0.41018617 0.5130743 0.1367667 -0.36872214 -0.46151474
-0.3998805 0.3122854 0.2375091 0.014111459 0.58313966 -0.32327953 -0.22043236 0.08120806
0.099021666 -0.34086886 0.25644177 -0.12159248 -0.12846379 0.39885828 0.13377753 -0.7233895
0.15270947 0.12867837 -0.31888965 -0.5242442 0.0068209893 -0.21190143 -1.4279559 0.03961496
0.7035471 -0.32725814 -1.1961293 -0.59687257 0.08358702 0.41604528 0.44068888 0.016351897
0.25867695 -0.4792054 -0.36319974 -1.3522817 0.11995409 -0.41580987 0.29072642 -0.35469717
-0.15387325 -0.5325472 -0.23993054 -0.4847069 0.12776938 -0.30652463 0.6244933 0.25325888
0.021975042 0.41324687 0.09428011 -0.357135 -0.59649706 0.29413876 0.16269773 -0.82070017
0.29905912 -0.417598 -0.41163453 0.09343893 -0.29559016 -0.5795574 -0.09450885 0.13768014
-0.011003355 0.36781314 -0.65968996 -0.31581703 -0.27581626 -0.20419753 -0.2389724 0.239029
0.53392994 -0.94747937 0.19608532 0.16245633 -0.45335487 -0.10256666 0.07218241 -0.102650106
0.5862031 -0.016966384 0.06206805 -0.40911627 -0.61454535 -0.07835522 0.083844066 -0.008891765
-0.6530917 0.15739888 -0.08782865 -0.13329175 0.33769488 -0.7525303 0.33221427 0.62531596
-0.33285204 0.28259036 -0.39019474 0.06699829 -0.17620566 0.23606665 -0.92426926 -0.15259475
0.36316994 -0.3695119 -0.35363322 -0.53318495 0.19129607 -0.01373148 -0.27123567 0.3380406
-0.12010534 -0.55166835 0.3720391 -0.25642392 -0.065251134 -0.24574497 -0.78526515 0.18239857
0.15298961 0.14114468 0.28952536 -0.27567622 -0.28377652 0.043094758 0.007354219 0.15449761
-0.100740515 -0.6737268 -0.21181798 -0.544033 -0.18490049 -0.3326315 0.09792791 0.4165698
-0.18689129 -0.1592377 -0.5669391 -0.19480531 -0.88079363 -0.05806597 -0.49001175 -1.4931157
-0.01836244 -0.41528237 0.00464281 -0.015381785 -0.091808006 -1.0091405 -0.27478215 -0.4615147
00000000: 559e 2d3f bf04 c1bf e780 c73e 4809 10bf
00000010: 2b9f 0ebf 19f7 243f e5e7 fa3e 79f5 aa3f
00000020: 1100 b33e de6a fdbe 948b ed3d 364c 0f3f
00000030: 6c12 1abe fe30 833f d0ad ee3e 178f 543e
00000040: b4bf a93e 2b9b d7be 1787 4dbf e9cb 793d
00000050: 631b 4fbe d3ab 58bf 5364 cdbe 5524 60bf
00000060: 45df 3dbe 6605 0d3d 26cf 3bbf 6447 90be
00000070: 28e4 dd3e c17e 67bf 8205 8f3d eea8 353f
00000080: ff36 1b3e c5c6 ff3b 803f e43e dfa4 5dbf
00000090: 1cf8 1ac0 bcb5 973e 88f3 dcbd ce5a ce3c
000000a0: 62fe 573e eef8 703d 1147 bc3d 9fab 86bc
000000b0: 6ed3 c9be 0d37 fcbd 422b 77bf 8a85 7f3f
000000c0: fe18 c7be c55b 23bf e289 873e 160a cd3e
000000d0: 71a1 223f 3806 a33f 98f6 223e 62ed debe
000000e0: 9f74 8bbf fba3 5b3e 81eb f1bd cea9 453f
000000f0: 950f 31be d8ae 56be bed4 883e 52af 0d3d
00000100: 002d 25bf 905c 55be a816 603e d354 81be
00000110: ec43 d8bd 733f 1c3e 124e bf3e 60aa 1abf
00000120: 38e1 e4be c020 a6bd aea7 00be 094c a1be
00000130: a711 cc3d 0511 bdbe 3b36 8dbe 59d8 263f
00000140: 2363 5bbe 239b 81be 6178 f33d 24a7 18bf
00000150: a54c 65be fb1f 183f 7ede bd3e ff32 4bbe
00000160: 8b3f 53be 358a 74be 4938 f63e 365c c43d
00000170: 7c42 e5be 0a0c 0d3f c732 073f ae70 0e3f
00000180: 0edc 063d 9890 5a3e 52ae 80bc ec03 d2be
00000190: d658 033f 920c 0c3e 26c9 bcbe a94b ecbe
000001a0: 23bd ccbe dfe3 9f3e 9635 733e c033 673c
000001b0: a448 153f e584 a5be 05b9 61be 6950 a63d
000001c0: dfcb ca3d 5d86 aebe 564c 833e 7a05 f9bd
000001d0: 038c 03be 2737 cc3e fafc 083e 0e30 39bf
000001e0: df5f 1c3e 43c4 033e 8145 a3be de34 06bf
000001f0: 9b82 df3b b0fc 58be 42c7 b6bf 4c43 223d
00000200: aa1b 343f 618e a7be c41a 99bf a4cc 18bf
00000210: ac2f ab3d e303 d53e f9a1 e13e 6af4 853c
00000220: 4e71 843e 695a f5be 51f5 b9be 9117 adbf
00000230: 7daa f53d 08e5 d4be 18da 943e de9a b5be
00000240: f390 1dbe 0355 08bf 5ab0 75be 812b f8be
00000250: fad5 023e ccf0 9cbe cbde 1f3f 26ab 813e
00000260: 0105 b43c 1895 d33e ee15 c13d 66da b6be
00000270: 08b4 18bf 5b99 963e 3c9a 263e 6819 52bf
00000280: 471e 993e 68cf d5be c3c1 d2be e95c bf3d
00000290: 9857 97be e05d 14bf db8d c1bd 06fc 0c3e
000002a0: 6a47 34bc 0152 bc3e 71e1 28bf c5b2 a1be
000002b0: ca37 8dbe 2819 51be 2eb5 74be 05c4 743e
000002c0: a2af 083f 028e 72bf 97ca 483e f45a 263e
000002d0: 211e e8be 780e d2bd 5fd4 933d 383a d2bd
000002e0: 6811 163f 16fd 8abc 113b 7e3d b077 d1be
000002f0: d852 1dbf b478 a0bd 70b6 ab3d c4ae 11bc
00000300: 0531 27bf 2c2d 213e 82df b3bd a27d 08be
00000310: 58e6 ac3e d3a5 40bf fd17 aa3e b514 203f
00000320: 956b aabe afaf 903e 9bc7 c7be 6636 893d
00000330: 426f 34be 75bb 713e e99c 6cbf cc41 1cbe
00000340: 69f1 b93e aa30 bdbe 6a0f b5be cf7e 08bf
00000350: 1ee3 433e 00fa 60bc 67df 8abe a813 ad3e
00000360: caf9 f5bd 233a 0dbf e97b be3e ff49 83be
00000370: 63a2 85bd 92a4 7bbe 2307 49bf b1c6 3a3e
00000380: 4fa9 1c3e 3b88 103e ab3c 943e 6f25 8dbe
00000390: 284b 91be 2184 303d a9fb f03b 9f34 1e3e
000003a0: 0b51 cebd 5c79 2cbf d0e6 58be bf45 0bbf
000003b0: 8e56 3dbe ad4e aabe 6e8e c83d a348 d53e
000003c0: 6e60 3fbe 350f 23be ec22 11bf 0b7b 47be
000003d0: b17b 61bf 95d6 6dbd d2e2 fabe 6a1e bfbf
000003e0: d46c 96bc e49f d4be b722 983b e203 7cbc
000003f0: d605 bcbd 842b 81bf 3fb0 8cbe a84b ecbe

fc2.bias f4 [50]
0.03849886 0.030470015 -0.42820168 -0.21180604 0.39372018 -0.20281734 -0.27768934 0.44178307
-0.014636633 0.5571349 -0.07359242 0.52454257 0.16163498 0.15068446 -0.07170704 0.48042575
0.20878558 -0.46830797 0.08891387 -0.6538189 0.03173928 -0.20756964 0.37749594 0.040287264
0.21109675 0.05889122 -0.24943599 -0.8315482 0.1955727 -0.13716905 0.17290838 0.24253227
0.2720727 0.24225795 0.36995295 -0.016576907 -0.26531693 -0.12569402 0.35654628 0.10996956
-0.22495338 -0.3444422 -0.49990612 -1.1002492 0.40095454 0.1460427 -0.44480756 -0.09839127
0.038329083 -0.034545954
00000000: fbb0 1d3d 419c f93c 403d dbbe afe3 58be
00000010: b195 c93e 59af 4fbe 4c2d 8ebe 6431 e23e
00000020: 7dce 6fbc 65a0 0e3f 9fb7 96bd 6c48 063f
00000030: a483 253e 074d 1a3e 24db 92bd 5dfa f53e
00000040: e3cb 553e 10c6 efbe 7a18 b63d ad60 27bf
00000050: 0c01 023d 238d 54be 2647 c13e 4204 253d
00000060: bf29 583e eb37 713d 266c 7fbe 58e0 54bf
00000070: 3644 483e 0b76 0cbe e50e 313e 615a 783e
00000080: 1d4d 8b3e 7812 783e 796a bd3e 4bcc 87bc
00000090: 9fd7 87be efb5 00be 3c8d b63e b837 e13d
000000a0: 2e5a 66be ba5a b0be b2f3 ffbe f7d4 8cbf
000000b0: ea49 cd3e 388c 153e d1bd e3be 5d81 c9bd
000000c0: f5fe 1c3d 0f80 0dbd

out.weight f4 [4, 50]
-0.96000224 -1.5261964 1.243205 1.6843276 0.8549655 -1.5926481 0.20486772 -0.5635505
-0.2400885 1.046175 -0.18440902 0.3260287 -0.081438154 0.27133954 -1.7349632 0.1229728
-1.0292003 -1.1279742 0.14642823 1.0385702 -0.7514695 0.264548 0.24251887 0.5580545
-0.20162259 -0.3504386 1.2076449 0.407799 0.16355753 0.67063934 -0.97527486 4.6184826
1.205356 3.2496276 1.5733435 0.059788544 -1.644595 0.04873473 1.0126933 -0.77430975
-0.7510699 0.1784602 -0.704161 0.3898341 0.009529618 0.67303544 -0.48445064 -0.5342959
-0.0666698 0.16810834 -0.77147263 0.55804 0.72242385 -0.4627545 1.0061256 -1.0906028
2.2625942 0.61503166 0.2275685 0.78180796 -0.24636157 -1.433215 -1.1169581 -1.8535234
0.37233666 -0.76445466 -3.1349568 0.42075956 -0.33421192 0.4700829 0.46518743 0.2270276
0.72299606 1.6903764 0.37992784 -0.031769726 5.718976 0.034459528 -0.49566224 -0.11803705
0.9174962 0.9202936 -0.2739302 -0.06266902 -1.0438392 -0.024331478 0.050265204 0.34922206
0.26427642 1.1194298 2.1650932 0.5540287 -0.062196944 0.9724358 -0.46046793 0.013015479
0.71365005 -0.99465305 0.6960076 -0.79859865 0.76653737 0.034819763 0.35782042 1.5560462
0.9979033 -0.41387692 0.037033167 2.0096116 -0.14697848 0.09154477 0.97003424 0.87623066
-2.4907048 0.95985293 -0.29552287 -0.31890514 0.29094398 0.05518645 0.4464245 0.73355204
-1.2298564 -0.642494 1.8626647 0.31486 2.3952863 1.1407368 -2.262511 0.3917176
-2.9421477 -0.4901488 -0.320491 1.7909843 -0.06924307 0.24909344 0.35242024 0.023066552
-0.37161297 -1.2235848 -0.16684002 -1.0256717 0.20389801 0.110400945 -0.7702984 1.1985134
-0.77163255 0.44518307 0.5223607 0.4060959 -0.41838253 -1.3251497 1.0865877 -0.2233202
0.42244086 -0.06793409 1.3919576 0.07038249 0.04083935 -0.9916919 0.16653478 0.1838835
-0.37036973 -1.9072946 -1.5844203 -0.53448564 0.031648617 0.16847059 -0.5326067 1.0635456
-1.4332976 0.40421674 0.006101518 -0.8904615 -1.4469697 -0.81088465 0.20330644 0.6751523
2.5589373 2.2054572 0.6033933 -2.9967217 0.45508376 -2.2511146 0.27571195 0.16759141
1.9842107 -0.082842715 -0.53522336 -0.1463907 -0.82512707 -0.5462085 1.3870312 -0.36422795
0.951759 0.46304062 0.63621926 1.7788963 -0.55358756 -0.11294505 -0.9984017 -0.47953326
00000000: b5c2 75bf 675a c3bf 5721 9f3f 0c98 d73f
00000010: 05df 5a3f e5db cbbf d8c8 513e d844 10bf
00000020: c2d9 75be 10e9 853f b8d5 3cbe 3ced a63e
00000030: 0cc9 a6bd 04ed 8a3e 4613 debf 2ad9 fb3d
00000040: d6bc 83bf 7561 90bf 48f1 153e deef 843f
00000050: 4e60 40bf d672 873e de56 783e a9dc 0e3f
00000060: 2776 4ebe b06c b3be 1c94 9a3f 08cb d03e
00000070: a07b 273e 05af 2b3f 9dab 79bf 9cca 9340
00000080: 1b49 9a3f e6f9 4f40 5263 c93f d5e4 743d
00000090: 1782 d2bf 119e 473d ef9f 813f 2a39 46bf
000000a0: 1e46 40bf 45be 363e e543 34bf 5698 c73e
000000b0: 1d22 1c3c 0d4c 2c3f ea09 f8be 9ec7 08bf
000000c0: 2d8a 88bd 9824 2c3e 3b7f 45bf b6db 0e3f
000000d0: c5f0 383f 28ee ecbe b9c8 803f df98 8bbf
000000e0: 58ce 1040 b772 1d3f b807 693e 9124 483f
000000f0: 3546 7cbe 9773 b7bf 7cf8 8ebf 4140 edbf
00000100: e9a2 be3e 4db3 43bf 22a3 48c0 cc6d d73e
00000110: d31d abbe b5ae f03e 0c2d ee3e ec79 683e
00000120: 4516 393f 415e d83f e785 c23e f920 02bd
00000130: da01 b740 6f25 0d3d 71c7 fdbe 69bd f1bd
00000140: 08e1 6a3f 5d98 6b3f 9440 8cbe 9d58 80bd
00000150: 869c 85bf cf52 c7bc e3e2 4d3d 3ccd b23e
00000160: 3d4f 873e 7a49 8f3f e390 0a40 d3d4 0d3f
00000170: 39c2 7ebd 8df1 783f 74c2 ebbe e03e 553c
00000180: c5b1 363f 95a1 7ebf 8e2d 323f f670 4cbf
00000190: cb3b 443f 2b9f 0e3d 3d34 b73e 862c c73f
000001a0: 9776 7f3f ade7 d3be 17b0 173d 7a9d 0040
000001b0: 8781 16be d37b bb3d 2a54 783f a750 603f
000001c0: b567 1fc0 ecb8 753f c64e 97be 8947 a3be
000001d0: 9cf6 943e 300b 623d c191 e43e 11ca 3b3f
000001e0: ef6b 9dbf 7d7a 24bf cc6b ee3f 5435 a13e
000001f0: 5f4c 1940 aa03 923f fbcc 10c0 368f c83e
00000200: 264c 3cc0 c9f4 fabe 6517 a4be f93e e53f
00000210: 50cf 8dbd 5a12 7f3e 6d70 b43e 11f6 bc3c
00000220: 0e44 bebe 6d9e 9cbf 1cd8 2abe 3649 83bf
00000230: a4ca 503e e419 e23d 4732 45bf e368 993f
00000240: b689 45bf 09ef e33e 6eb9 053f cdeb cf3e
00000250: 3c36 d6be 819e a9bf 4e15 8b3f 0dae 64be
00000260: 2b4a d83e 0721 8bbd ab2b b23f b224 903d
00000270: 2a47 273d 85df 7dbf 1888 2a3e f54b 3c3e
00000280: 1aa1 bdbe 3b22 f4bf 49ce cabf 0dd4 08bf
00000290: fba1 013d 8e83 2c3e ea58 08bf 4322 883f
000002a0: 4c76 b7bf 7ff5 ce3e 3eef c73b 49f5 63bf
000002b0: 4e36 b9bf 2396 4fbf 902f 503e c8d6 2c3f
000002c0: a1c5 2340 3626 0d40 fc77 1a3f 4aca 3fc0
000002d0: bd00 e93e 4312 10c0 1e2a 8d3e 159d 2b3e
000002e0: 9efa fd3f 71a9 a9bd 6604 09bf 72e7 15be
000002f0: 873b 53bf 52d4 0bbf 3d8a b13f 167c babe
00000300: 7aa6 733f a913 ed3e 44df 223f e0b2 e33f
00000310: eab7 0dbf bc4f e7bd 4197 7fbf 6285 f5be

out.bias f4 [4]
0.0061156717 0.2676272 0.3563526 0.45116892
00000000: f965 c83b 6f06 893e d973 b63e 9dff e63e

fc1.weight f4 [64, 11]
-5.300317 -14.215746 1.1512966 -0.48083743 1.5551364 1.204556 0.1081663 0.009324708
0.005679223 0.0021124645 0.0009203408 -0.6220161 2.2849464 -1.7019085 -1.222307 -0.07098619
-0.045019858 0.05898497 -0.01762579 -0.08691993 -0.018983265 0.061145037 -7.7224884 -6.892252
-0.9188202 0.26866007 -1.8717371 3.2494287 -0.3245381 -0.045373224 -0.04824998 0.05035956
-0.00476652 -2.4487863 -0.3416155 -0.3707739 -1.139307 -1.8544385 0.9368828 -0.15153612
0.057286695 0.020679548 0.056971755 0.010442291 -0.6278341 -1.1347361 -1.1662856 -0.68078434
-0.21554174 -0.32866222 -0.7746002 -0.06990725 0.035761382 0.019498296 -0.024228223 1.0141287
-3.3662045 -0.6127532 -0.8417998 -0.5936065 -0.02078314 0.46430972 0.0043447483 -0.04678058
0.013301154 0.057880476 2.590962 0.34022397 1.134826 -0.9117367 -2.8355289 1.2211872
-0.60441446 -0.05530324 -0.001979618 0.058441196 0.0075615854 0.75678205 -2.2336817 -0.35209176
-1.1189678 0.20728834 0.5531635 -0.336786 -0.009991246 -0.00014411661 0.012259965 0.009497418
-0.06970128 -0.07388791 0.567273 -1.0769995 -0.64315677 -1.0011979 -0.16898452 0.012904271
0.03324679 0.0103812665 -0.026657254 0.41090715 -0.058013394 -0.09273969 -1.404548 0.029406056
-0.4627148 -0.37815154 0.03208852 -0.04547773 0.013020788 -0.0160147 -0.7803482 -1.4193008
-1.0694156 -0.6496065 -2.1303215 0.6981787 -2.0575802 -0.17943403 0.007445887 0.027116476
0.013133557 0.3369102 1.461069 0.16999349 -1.3738143 -1.0626802 0.05858364 0.08653162
0.020019295 0.017061956 -0.022616649 0.004234519 5.3940015 2.5553348 -0.5900676 -0.7701846
-0.27678794 3.9247136 -0.5621738 -0.0355213 -0.04128914 -0.032337416 0.111053646 -0.28777346
1.0084625 2.498893 -0.9928349 -0.0029840425 0.05324678 0.16732906 0.0030496265 -0.0022313944
0.0004904848 -0.0021538737 -0.78990984 1.1022986 -1.8967872 -1.343591 -0.14044517 -0.26531097
1.3149741 -0.020118741 -0.010089854 -0.040897764 -0.1967722 -8.072817 4.174296 -0.24858835
-0.9859416 0.43912083 -2.0726807 -0.31379798 0.02195626 0.016593263 0.0030977246 0.05542867
3.400709 2.800973 -2.2841592 0.47016555 -0.9880598 -0.30356959 -0.07906468 0.010241876
-0.060682748 -0.027846502 -0.022574194 -16.217905 0.9548953 0.33660454 0.3356167 0.63072634
-1.6023539 0.07452008 0.0057543623 0.0010116012 -0.0019331153 -0.0024492724 -0.20416775 -1.7376485
0.23219946 -0.74537164 -1.8997653 -2.5297005 0.3208156 -0.06875504 -0.023128713 -0.009635302
0.062002223 0.50167346 -1.4996213 0.68720824 -1.2118745 -0.06537204 -0.6173095 -0.25222227
0.0058545545 0.012672976 0.030910674 -0.032131612 0.14776178 -0.63699245 -0.8562109 -1.048571
-3.78149 -0.17698237 0.6117923 -0.08177314 -0.0073800692 -0.0010276191 -0.051477015 -9.274871
-8.570335 -0.37209538 -0.13656016 0.80660015 -0.88880414 0.057125874 0.00849161 0.0023040734
-0.018095698 0.015833607 2.171882 -0.62928694 -0.13603902 -1.3828422 -0.7522206 1.0064486
0.07802399 0.07394307 -0.04435253 0.03974911 0.0022723582 1.4092653 0.1097949 -0.37310603
00000000: 329c a9c0 b273 63c1 b05d 933f 5330 f6be
00000010: b60e c73f e42e 9a3f 4b86 dd3d a9c6 183c
00000020: c718 ba3b 4671 0a3b 0743 713a 723c 1fbf
00000030: 903c 1240 23d8 d9bf 8e74 9cbf 3561 91bd
00000040: be66 38bd 399a 713d f663 90bc 1403 b2bd
00000050: cb82 9bbc 3873 7a3d a01e f7c0 548d dcc0
00000060: cd37 6bbf d08d 893e 1595 efbf a4f6 4f40
00000070: dc29 a6be 46d9 39bd c5a1 45bd d345 4e3d
00000080: 7830 9cbb eab8 1cc0 3ae8 aebe 14d6 bdbe
00000090: d0d4 91bf 3e5e edbf 8dd7 6f3f 492c 1bbe
000000a0: 74a5 6a3d 2868 a93c 375b 693d 2516 2b3c
000000b0: bcb9 20bf 083f 91bf d948 95bf e247 2ebf
000000c0: f9b6 5cbe 6a46 a8be 334c 46bf 882b 8fbd
000000d0: 877a 123d e4ba 9f3c 447a c6bc f8ce 813f
000000e0: e56f 57c0 65dd 1cbf 3180 57bf 98f6 17bf
000000f0: 6741 aabc 01ba ed3e 645e 8e3b fe9c 3fbd
00000100: 15ed 593c 1414 6d3d 52d2 2540 d631 ae3e
00000110: fa41 913f 9467 69bf 4e79 35c0 dd4f 9c3f
00000120: e8ba 1abf a685 62bd 7bbc 01bb 0960 6f3d
00000130: 2dc7 f73b 78bc 413f a4f4 0ec0 5f45 b4be
00000140: 563a 8fbf 6543 543e 209c 0d3f 376f acbe
00000150: 53b2 23bc 021e 17b9 05de 483c 0f9b 1b3c
00000160: 8bbf 8ebd 8b52 97bd ce38 113f 1fdb 89bf
00000170: eca5 24bf 4127 80bf 470a 2dbe 6f6c 533c
00000180: c92d 083d 3016 2a3c 5060 dabc 6c62 d23e
00000190: 749f 6dbd 4eee bdbd 3bc8 b3bf f8e4 f03c
000001a0: f4e8 ecbe 149d c1be 406f 033d db46 3abd
000001b0: 2555 553c 4331 83bc e6c4 47bf a6ab b5bf
000001c0: 9ce2 88bf 9d4c 26bf 3057 08c0 d7bb 323f
000001d0: 65af 03c0 8ebd 37be a1fc f33b 5f23 de3c
000001e0: 212e 573c 7e7f ac3e 4f04 bb3f c612 2e3e
000001f0: 26d9 afbf e805 88bf 66f5 6f3d 7d37 b13d
00000200: 81ff a33c 84c5 8b3c 8d46 b9bc b8c1 8a3b
00000210: a99b ac40 9b8a 2340 ac0e 17bf d12a 45bf
00000220: 26b7 8dbe 822e 7b40 9fea 0fbf c87e 11bd
00000230: cd1e 29bd 3d74 04bd 1870 e33d 0b57 93be
00000240: 4d15 813f dded 1f40 6e2a 7ebf ed8f 43bb
00000250: 4c19 5a3d 4f58 2b3e 3edc 473b 963c 12bb
00000260: e193 003a 0128 0dbb 8837 4abf 1f18 8d3f
00000270: ecc9 f2bf cafa abbf dcd0 0fbe d7d6 87be
00000280: 1251 a83f 0fd0 a4bc ea4f 25bc 6a84 27bd
00000290: a77e 49be 422a 01c1 d593 8540 f28d 7ebe
000002a0: ab66 7cbf 72d4 e03e cda6 04c0 21aa a0be
000002b0: 9ddd b33c 98ee 873c 3203 4b3b 2c09 633d
000002c0: 37a5 5940 2443 3340 aa2f 12c0 8ab9 f03e
000002d0: 7df1 7cbf 796d 9bbe aaec a1bd 8bcd 273c
000002e0: 798e 78bd 591e e4bc 84ed b8bc 45be 81c1
000002f0: 0574 743f 6e57 ac3e f4d5 ab3e 4877 213f
00000300: ef19 cdbf fc9d 983d 178f bc3b b497 843a
00000310: 9660 fdba f983 20bb 5a11 51be 446b debf
00000320: b2c5 6d3e add0 3ebf 822b f3bf 9de6 21c0
00000330: f141 a43e 71cf 8cbd 6d78 bdbc 63dd 1dbc
00000340: 0bf6 7d3d ac6d 003f 97f3 bfbf e1ec 2f3f
00000350: b41e 9bbf c7e1 85bd ff07 1ebf 4723 81be
00000360: 90d7 bf3b 50a2 4f3c 6238 fd3c 709c 03bd
00000370: dd4e 173e f011 23bf a330 5bbf 9337 86bf
00000380: ef03 72c0 de3a 35be 6c9e 1c3f ad78 a7bd
00000390: 82d4 f1bb 2db1 86ba 90d9 52bd df65 14c1
000003a0: 1820 09c1 4983 bebe 6dd6 0bbe 597d 4e3f
000003b0: ab88 63bf d2fc 693d 6520 0b3c f0ff 163b
000003c0: 6e3d 94bc 7bb5 813c 1d00 0b40 f318 21bf
000003d0: d04d 0bbe f900 b1bf 8791 40bf 4fd3 803f
000003e0: 0bcb 9f3d 776f 973d 00ab 35bd f6cf 223d
000003f0: d8eb 143b ce62 b43f 26dc e03d c107 bfbe

fc1.bias f4 [64]
-0.32370672 -1.3588881 0.4060323 -0.7868474 -0.4165193 -1.0164558 -0.92847073 -0.88522685
-0.94534343 -1.530207 -0.33142757 -1.1204675 -0.6960253 -1.197917 -1.4217347 -1.0249327
0.6730705 0.31808883 -0.83534706 -0.90928286 -0.9460686 0.023625217 -1.6332278 -1.392872
-0.14477037 -0.93066925 -0.7860656 -1.2417209 -0.9247825 -0.3787954 -0.7734567 -1.3654903
-0.804097 -1.0644511 0.8471416 -1.3662851 -0.88256454 0.51828104 -0.037820112 -0.8783706
-0.5564684 -1.3047756 0.14059028 -0.6433691 -1.1248169 -0.37537187 -0.73316866 -0.4255275
-1.1701912 -1.4237359 -0.36241642 -0.6816732 -0.5575874 0.34757647 -1.3840759 -0.8976585
-1.2949076 -1.1955096 -0.71081597 -0.50316197 -0.37022188 -1.3265759 -1.0692371 -0.1005805
00000000: e3bc a5be 0cf0 adbf 77e3 cf3e d56e 49bf
00000010: 0542 d5be 391b 82bf 42b0 6dbf 3a9e 62bf
00000020: 0702 72bf d3dd c3bf e0b0 a9be 7b6b 8fbf
00000030: b72e 32bf 5855 99bf 67fb b5bf ff30 83bf
00000040: 594e 2c3f 8adc a23e 4ed9 55bf c3c6 68bf
00000050: 8d31 72bf ac89 c13c 9c0d d1bf a149 b2bf
00000060: af3e 14be 5740 6ebf 983b 49bf b6f0 9ebf
00000070: 8cbe 6cbf 78f1 c1be 4201 46bf 63c8 aebf
00000080: 4dd9 4dbf ef3f 88bf 46de 583f 6ee2 aebf
00000090: c0ef 61bf 11ae 043f 43e9 1abd e5dc 60bf
000000a0: b774 0ebf e302 a7bf e6f6 0f3e d6b3 24bf
000000b0: 00fa 8fbf be30 c0be f1b0 3bbf bede d9be
000000c0: d3c8 95bf fa3c b6bf a58e b9be 2382 2ebf
000000d0: 0cbe 0ebf 8bf5 b13e 6629 b1bf f3cc 65bf
000000e0: 88bf a5bf 7506 99bf 09f8 35bf 39cf 00bf
000000f0: b98d bdbe 3dcd a9bf c3dc 88bf 26fd cdbd
