model/linear.pth (torch_old, 75160 bytes, 22 tensors)

fc1.weight f4 [100, 7]
000000 fd 36 bc be 9a ad a6 3e c7 6e d8 be 12 a9 d5 3e
       -0.36760703 0.32554322 -0.42272016 0.41730553
000010 cf 80 62 be 5c 20 25 bf 8c 72 45 3e 76 4a 15 3d
       -0.22119449 -0.645025 0.19281977 0.036447965
000020 86 bc 3e bf ba 9b 54 bf af 62 eb 3e cb 55 a3 3b
       -0.74506414 -0.8305012 0.45973727 0.0049845926
000030 4e 6a 8a 3d 00 67 10 bd a6 62 e8 bb 49 e4 32 3e
       0.06758557 -0.03525448 -0.007091838 0.17469896
000040 66 eb 65 bb fb 4e 0b bf 87 11 c1 3d 6a 2f f9 bd
       -0.0035082935 -0.5441739 0.09427171 -0.12167247
000050 1f d4 ad bc d5 53 ed 3f 67 b7 17 40 81 58 a8 bd
       -0.021219311 1.8541209 2.370569 -0.08220006
000060 04 e6 9d be 4e 9a 57 bf d7 db 4e 3e 03 05 57 3d
       -0.3083955 -0.84219825 0.2020105 0.052495014
000070 fc 19 6b 3f eb 54 1e 40 e5 af bc be fb ee c0 be
       0.91836524 2.473933 -0.36852947 -0.37682328
000080 79 fe fc be c1 bc 16 3e 95 2c ad 3d b0 4e ee 3f
       -0.49412897 0.14720441 0.08455769 1.8617764
000090 43 be d7 3d d8 8d 2a bf 62 ac cf be 06 85 7b bf
       0.105343364 -0.66622686 -0.40561205 -0.9824985
0000a0 72 ca 34 3f de d3 1c be 3c 62 25 3e 5f 83 14 3f
       0.7062141 -0.15315196 0.16150755 0.58012956
0000b0 c5 f8 89 bf f6 c5 ab be 93 55 2c bf e2 6e 72 bd
       -1.0779043 -0.3354947 -0.67318076 -0.059187777
0000c0 f8 c2 a0 3e 47 f8 0c c0 c6 8f a6 bf d1 b3 8f bf
       0.3139875 -2.2026536 -1.3012626 -1.1226751
0000d0 61 85 b5 3c 53 4e 19 be 57 88 60 3e 0e 94 8a be
       0.022158327 -0.14971285 0.2192701 -0.27066082
0000e0 60 5f 3b 3e fb cc 93 3e 59 06 94 be 11 2a 4d bf
       0.18298101 0.28867325 -0.28911093 -0.80142313
0000f0 78 4e bf be 3b 43 2d 3e 45 3d 48 be 72 95 59 c0
       -0.37364554 0.16920178 -0.19554622 -3.3997464
000100 0f 02 da 3f ee 94 c9 3c 8d a0 b0 bb db 3f 34 bd
       1.7031878 0.024607148 -0.005390233 -0.04400621
000110 26 c0 19 bf c1 c0 6b bd d2 02 b4 3e 01 36 84 3f
       -0.6005882 -0.05755687 0.35158402 1.0328981
000120 48 49 55 bf dd ee 41 3e 2d 61 bd be 25 52 e2 3e
       -0.83314943 0.18938775 -0.36988202 0.44203296
000130 3a 7e de 3b 8e bb 2b bf 53 11 0c c0 14 7f 40 be
       0.0067899497 -0.6708306 -2.1885574 -0.18798476
000140 43 fc ed be 09 ef 02 3e e3 5f 3a bf 54 fc 05 3e
       -0.46481523 0.12786497 -0.7280256 0.13084537
000150 13 9b 0f 3f eb ed 0d bf 97 51 a4 3e 3c 04 13 bf
       0.56096 -0.5544116 0.32093498 -0.57428336
000160 e6 59 d3 be bc 1e ea 3d ae a2 6a 3d a6 92 13 3f
       -0.41279525 0.11431643 0.05728405 0.5764564
000170 55 4c 2f 3f 1f a6 5e bf fe e5 ab be 90 5e 16 bf
       0.6847585 -0.8697223 -0.33573908 -0.5873804
000180 33 0f 00 be fd 4a 14 3d 5f f7 62 be 4f 1a 2f bf
       -0.12505798 0.036204327 -0.22164677 -0.6839952
000190 c2 00 b0 bf 92 c0 0a be cf ec a6 be 71 7a 7a 3e
       -1.3750231 -0.13550022 -0.32602546 0.2446077
0001a0 62 c3 2c be c9 fb 8b 3f 9a 3e cf 3f 7c db e1 bd
       -0.16871408 1.0936214 1.619098 -0.110281914
0001b0 5d d6 17 bd 4d 0b fd be 64 01 3c bf c2 8e 97 3e
       -0.037069667 -0.49422684 -0.7343962 0.29601103
0001c0 ce f1 37 3e 6b ec 43 c0 39 d6 9e 3e c9 d8 a5 bd
       0.17963335 -3.0613048 0.31022814 -0.08097989
0001d0 71 ee 98 3d 27 f8 40 3e 49 54 cd 3d 5b 35 f0 3f
       0.07467354 0.18844663 0.10025842 1.8766283
0001e0 1f 48 88 bd 1c b7 ab 3d 12 21 a4 bd 1e 43 f0 be
       -0.06654381 0.08384535 -0.0801412 -0.46926206
0001f0 f3 02 38 bf 87 76 b7 3d f6 27 6f c0 44 7f bb bf
       -0.718795 0.08958154 -3.736814 -1.4648213
000200 35 17 29 bf 22 d5 a8 be b9 fd 65 3e 78 82 4b bf
       -0.66051036 -0.32975107 0.22460069 -0.79495955
000210 f1 24 bf bd 6c ba 96 3f 81 84 59 3f 30 55 56 bf
       -0.09333218 1.1775641 0.8496781 -0.83723736
000220 a3 12 06 bf 8b ab 37 bf 92 2c 51 3f a7 c1 b0 be
       -0.5237219 -0.7174613 0.81708634 -0.34522745
000230 89 e8 ac 3e b5 2b 5b c0 6a e0 11 3f 78 c9 b1 bd
       0.3377116 -3.4245427 0.56983054 -0.08681005
000240 38 7a 94 3e 2f 6a b6 3e 9e 7e 7a 3e 3e 81 90 c0
       0.28999496 0.35627887 0.24462363 -4.5157766
000250 13 cf 9c bd 17 5d 8e 3e ef 3e a4 3d ff 64 d9 3e
       -0.07656684 0.27805397 0.08019816 0.42459866
000260 27 58 ac be 0c c1 66 bd b0 ec b6 be 1c d4 11 3e
       -0.33661005 -0.056336448 -0.35727453 0.1424107
000270 6a b8 21 bf 55 a8 e9 bd f4 3a 66 bf 1c f4 5e bf
       -0.6317202 -0.1140906 -0.89933705 -0.8709123
000280 ba ae 1a be ad 59 04 3e 3c 74 83 be 43 b5 a0 be
       -0.15105715 0.12924834 -0.25674617 -0.31388292
000290 c5 a1 fa be 56 73 24 bf 48 ae 9a 3e 32 d2 7b 3d
       -0.48951545 -0.6423849 0.3021109 0.061479755
0002a0 88 e7 a6 3e 77 62 83 bf 95 e3 9e 3d 5f 5b f3 be
       0.3259852 -1.0264424 0.077582516 -0.47530648
0002b0 c6 1c 64 be b8 93 a2 3e 57 b4 c0 3e ae 90 60 3f
       -0.22276601 0.31753325 0.37637588 0.87720764
0002c0 eb e4 f5 bf b9 80 d7 be a3 c9 34 bf 40 36 81 be
       -1.9210485 -0.42090395 -0.70620173 -0.25236702
0002d0 04 59 2c 3f bd c9 7d be b5 7b 36 3f c0 eb 1b bf
       0.6732333 -0.24783988 0.7128251 -0.609066
0002e0 b4 06 4d 3f 94 7b c7 be 1d fd 31 3d ab 90 cc 3e
       0.80088353 -0.3896147 0.04345428 0.39954123
0002f0 88 2c 4c 3c 0e a1 7c 3f 4d 7b 73 3f 17 18 0d bf
       0.012461789 0.9868325 0.9511002 -0.55114883
000300 52 84 33 be 7e 56 98 bf 5e 7e 2e 3e 2d 58 ab bc
       -0.17530945 -1.1901395 0.17040393 -0.020916069
000310 5a 51 88 c0 b5 86 44 be ca 44 54 3e bf 29 dc be
       -4.2599306 -0.19192012 0.20729366 -0.430006
000320 92 81 8e 3e a9 6c 8b bf 00 75 c5 3d 55 7a 36 3e
       0.2783323 -1.0892535 0.096414566 0.17820103
000330 4d 2c e3 3e 29 b1 22 be 1b d3 01 be ca ba 6d 3d
       0.44369736 -0.15887894 -0.12678187 0.058039464
000340 48 20 a2 3e 43 f8 8b 3e b4 ab bc 3d 82 a3 08 3f
       0.31665254 0.27337846 0.09212437 0.53374493
000350 48 45 7a 3e a3 d2 7b be 91 21 fa 3e 36 4c 6f bf
       0.24440491 -0.2459207 0.48853734 -0.93475664
000360 01 72 1e be 82 a1 fe bf 3a 6b 6b bf a0 7c b2 be
       -0.15473177 -1.9893038 -0.9196049 -0.34860706
000370 c5 c9 6e 3d 6a 3a 26 3e aa 86 35 be 4a 14 8f 3c
       0.05829789 0.1623322 -0.17727152 0.01746573
000380 a1 ed 94 3e e3 de f4 3f 3f 63 8b be 20 22 92 3d
       0.29087546 1.913052 -0.27224156 0.07135415
000390 43 1e a9 be a9 58 23 be 38 db 7f bd df 12 9b bf
       -0.330309 -0.1595179 -0.062464923 -1.2115134
0003a0 b1 66 a6 be 5c 0a 83 bf 46 16 c1 be 52 5f 35 be
       -0.32500222 -1.0237536 -0.37712306 -0.17712143
0003b0 b6 dc 3f bf b6 71 83 bd b2 e8 3a 3f 0b 61 bd bf
       -0.74946153 -0.06418173 0.73011315 -1.479524
0003c0 db e7 eb be 4e c6 99 be 36 87 0b 3e be 95 50 3f
       -0.4607533 -0.30034107 0.13625798 0.8147849
0003d0 77 c5 42 3e 71 fe f7 3d b7 6e 89 bf d3 87 9f bf
       0.1902064 0.12109078 -1.0736912 -1.2463325
0003e0 9f 1c 09 bb 94 9d 8c be 73 25 e8 3e cc 3e 07 bf
       -0.00209216 -0.27463973 0.4534107 -0.52830195
0003f0 f1 ea dd bf 08 57 13 40 4f 0b 93 3d 77 13 42 be
       -1.7337323 2.302187 0.07179891 -0.18952738

fc1.bias f4 [100]
000000 e6 93 7d 3e 18 56 bc 3e 43 57 d8 be 18 94 ea bd
       0.2476345 0.36784434 -0.42254075 -0.11454028
000010 a5 b1 c2 be 52 37 e8 be 1b 6d 81 be d8 b0 f6 3d
       -0.38026157 -0.45354706 -0.25278553 0.12045449
000020 b4 af 3b bf ba 29 30 3d 5f 26 a5 3e ee ec 96 be
       -0.73314977 0.043008544 0.32255837 -0.29477638
000030 14 5e 13 bf 7f d7 be be 9e 7f 58 bd f3 5b a8 3c
       -0.57565427 -0.37273785 -0.05285608 0.020551657
000040 32 e1 02 bd 01 b9 72 be b6 7c 23 be bd d7 11 bf
       -0.031953044 -0.23703386 -0.15965542 -0.56969815
000050 44 5d d9 bd 61 da f5 3c b2 31 1f be f6 49 e5 be
       -0.10613492 0.030011358 -0.15546301 -0.4478299
000060 44 68 be be 47 1f 25 bf 5f e9 a7 be 9b 7d 11 be
       -0.37188923 -0.6450085 -0.32795236 -0.14208071
000070 3d f3 9b be eb 9d 49 bd f0 38 1c be c2 e2 80 3e
       -0.30459014 -0.049222868 -0.15256095 0.25173002
000080 01 e8 da 3d b6 6b 9b be 95 30 be be 0e 18 10 3d
       0.106887825 -0.30355614 -0.3714644 0.03517919
000090 4a 7a 21 3c c8 34 f7 bd 38 ec 29 3e b6 4c 08 be
       0.009855816 -0.12070614 0.16594017 -0.13310513
0000a0 3e 56 b7 bd 50 f1 4e be f8 b4 00 3e f3 af 90 be
       -0.08951996 -0.20209241 0.12569034 -0.2825924
0000b0 e4 02 b6 be 58 8f 0e 3d f5 4a 5e 3e 8e ba 6c be
       -0.3554908 0.034804672 0.21708281 -0.2311804
0000c0 e3 90 d2 be 7b b5 95 be dd 4f b0 3e 50 d2 e7 bd
       -0.41126165 -0.2924002 0.3443593 -0.11319411
0000d0 a0 1c 39 be 6a f8 9e bc c8 d3 a6 3e 66 08 eb 3d
       -0.18077326 -0.019405562 0.3258345 0.11476211
0000e0 16 88 fe be 0e a7 b4 be 4d 30 66 3d c7 b3 34 bf
       -0.497132 -0.35283703 0.056198407 -0.7058682
0000f0 c5 80 ef be 70 74 ba be 6e 8c 2e be e6 ea 00 bf
       -0.4677793 -0.3641696 -0.17045757 -0.50358427
000100 1c be e6 be e2 95 5a bd 60 a5 36 bf 5d fd 04 bf
       -0.45066917 -0.053365596 -0.7134609 -0.519491
000110 27 d5 c3 be 6f 7f c9 be a7 87 ea be 28 64 0b bf
       -0.3824856 -0.39355037 -0.4580662 -0.544497
000120 ad cf 3d 3e 1a 3c b1 be 01 a7 37 be 54 9e 1c be
       0.18536253 -0.34616166 -0.179348 -0.15294772
000130 75 36 93 be 84 a7 cd be c3 95 39 3e 71 14 25 bf
       -0.28752485 -0.40166867 0.18123536 -0.64484316
000140 b9 db 9d be ff e9 37 be 4b a8 33 3e 9e a5 b9 be
       -0.30831698 -0.17960356 0.17544667 -0.36259168
000150 7e f3 c9 be 9e 50 c2 be d2 c5 bf be bb 22 81 be
       -0.39443582 -0.3795213 -0.37455612 -0.2522181
000160 b1 14 98 3d 3a d6 9d bc f3 55 27 be bb 06 20 3e
       0.074258216 -0.01926719 -0.16341381 0.15627567
000170 90 58 05 bf 38 c4 b2 3e 42 5a b4 be f6 02 49 be
       -0.5208826 0.34915328 -0.3522511 -0.19630036
000180 14 33 dd be 2b e2 cd be b0 8f 79 be 84 38 d0 be
       -0.43203032 -0.40211615 -0.24371219 -0.40668118

fc2.weight f4 [50, 100]
000000 71 ef 24 be b2 38 e8 3f a3 d4 d5 be a6 f4 fe 3e
       -0.16106965 1.8142302 -0.4176379 0.49796027
000010 2c ab 08 3f 98 ae 0a 3e d5 32 a0 3e b0 b8 a2 3f
       0.5338619 0.13543165 0.31288782 1.2712612
000020 ed 00 0e be 78 b4 1b bf a6 e0 0f 3f c3 53 04 bf
       -0.1386754 -0.6082225 0.5620216 -0.5169031
000030 ac 5a c0 bf c6 dc 9f 3e a4 4a 43 be 8d 41 42 bf
       -1.5027671 0.31223124 -0.19071442 -0.7588127
000040 12 83 63 3f 20 16 22 3f f6 38 04 3f f9 f1 99 3e
       0.8887187 0.6331501 0.51649415 0.30067423
000050 15 6c 46 3f 8d 33 03 3f 57 a1 82 bf e9 2f 2b be
       0.7750867 0.51250535 -1.0205487 -0.16717495
000060 b7 84 97 bf f6 c0 10 3e 2a 96 98 bf 92 ab 0a 3d
       -1.1837376 0.14136109 -1.1920826 0.03385503
000070 53 a9 63 bd 43 3e 05 3f 9b b3 d6 3e 8b b4 99 bd
       -0.055581402 0.5204813 0.41933903 -0.07505139
000080 f0 9d c6 bd c2 81 0e bf 87 05 d6 be 3a 7c ed be
       -0.09698093 -0.55666745 -0.41801092 -0.4638384
000090 c2 31 c2 bd 09 17 85 bd 99 9b d2 3d 70 bc 6a be
       -0.09482147 -0.06498534 0.10283584 -0.22923446
0000a0 e7 fe d9 3e bc 8a 3c 3e b0 8f b8 be 38 75 32 3f
       0.42577288 0.18412298 -0.36047125 0.6971011
0000b0 18 87 8d 3f 26 49 d1 3e 38 c4 d9 3e 50 19 0d 3f
       1.1056852 0.4087612 0.42532516 0.5511675
0000c0 03 5e 0d bf fb 8b 11 c0 16 cd e6 3c 6e ee dc be
       -0.55221575 -2.2741687 0.028173964 -0.43150657
0000d0 be 6d b8 bd 13 b3 39 bf 90 e9 8a 3e c1 76 7b 3e
       -0.09005307 -0.7253887 0.2713132 0.2455702
0000e0 af ed 4c bf c2 47 ff 3e a1 24 89 3e 9e 0f 05 3e
       -0.80050176 0.49859434 0.26785758 0.12994239
0000f0 97 ad 25 be b5 42 9b be fd 06 49 be 22 7f f8 bd
       -0.161795 -0.3032433 -0.19631572 -0.12133624
000100 e4 a3 af bf 07 0b a3 be 3b 7a d3 bd 9e aa ff bd
       -1.372189 -0.3184435 -0.10326048 -0.124837145
000110 5c ed d1 bf 8f c5 18 3e 12 56 d9 3d 59 24 d4 bf
       -1.6400561 0.14919113 0.1061212 -1.6573592
000120 7c 20 2e 3f a3 cc 80 bf de 84 cf bc 1d 04 29 be
       0.6801832 -1.006245 -0.02533191 -0.16505475
000130 b0 a1 8b be 76 94 d2 be aa a4 2f bf 8f cd 98 3e
       -0.27271795 -0.41128892 -0.6861063 0.2984433
000140 92 56 5b bf 49 57 f0 be 49 73 ea be 9d 69 11 c0
       -0.8567897 -0.46941593 -0.4579108 -2.2720711
000150 9d d9 ee be a4 7f 8b bf 81 94 2d bf fa 95 1a bf
       -0.466504 -1.0898328 -0.67804724 -0.60385096
000160 7d 49 4e bf 52 d5 53 bf cc e6 87 3f 26 24 57 3f
       -0.80580884 -0.82747376 1.0617309 0.84039533
000170 60 ca 08 3f a1 0e 40 bf 69 35 47 bf 09 a9 4e 3f
       0.534338 -0.7502232 -0.7781587 0.8072668
000180 28 e0 c2 bf 79 02 79 3e 25 c4 d9 be de ed 11 bf
       -1.5224657 0.2431735 -0.4253246 -0.5700358
000190 96 eb 19 bf 64 dc 1f be 84 e3 e2 3d 2f f1 59 bd
       -0.601251 -0.15611416 0.110785514 -0.053208526
0001a0 44 6c 94 bc c8 7a 52 be 5f 4b 10 bf 89 57 ad 3f
       -0.018118031 -0.2055465 -0.5636501 1.3542339
0001b0 7c 5d ba 3e 3f c1 62 3f 33 06 b6 3e 66 74 db 3f
       0.36399448 0.8857612 0.35551605 1.7144897
0001c0 e7 ab bc bb 02 c3 77 be a2 d6 8b be 0e b3 a0 3e
       -0.005757797 -0.24195483 -0.2731219 0.31386608
0001d0 3f 26 10 bf 0e 52 e2 3c 1c c6 3f 3f d3 16 93 3d
       -0.5630836 0.027627017 0.74911666 0.07182088
0001e0 9e 6d 9f be 5a b2 25 bf 9c 4b 70 3e c2 3a 68 be
       -0.3113832 -0.6472527 0.23466343 -0.22678664
0001f0 e4 b2 df 3c b0 0d c9 3e dd eb 49 be e2 cb 61 bf
       0.027306981 0.39268255 -0.19718881 -0.88201725
000200 69 77 a5 be 8e b3 b6 3e f8 bc 6d 3e 4f 4c fc be
       -0.32317665 0.35683864 0.23216617 -0.4927697
000210 8e 18 0b bc a4 1e 7d 3e 90 01 cd 3e 4e 7b 5c bd
       -0.008489741 0.2471872 0.40040255 -0.05382853
000220 9d 42 0e 3f a9 4f 20 3f 69 b7 2f 3d b7 a5 cb be
       0.55570394 0.6262155 0.042899523 -0.39774868
000230 45 71 e0 3d 38 fa 3e 3e 0c c8 84 3e a4 93 4a 3f
       0.109591044 0.18650138 0.25933874 0.7913153
000240 bc d2 46 3f e6 d8 6b bf 21 95 10 3f 0e b0 49 3d
       0.77665305 -0.92127836 0.5647755 0.049240164
000250 76 41 7d 3f 36 fc 3e be 03 e8 09 3f 52 18 d1 3e
       0.9892801 -0.18650898 0.53869647 0.40838867
000260 aa 03 35 3e f3 0f 94 3f f5 cb b5 bf 3f e1 e2 3e
       0.17677179 1.1567367 -1.4202868 0.44312474
000270 ad 5e 6c 3d bc 3e ca 3e 74 a4 05 bf 29 76 7d 3e
       0.057707477 0.39500988 -0.5220406 0.24752106
000280 91 0e 75 bf 66 06 b2 be b6 b1 c7 bb 5e ab 61 3e
       -0.9572535 -0.34770507 -0.006094183 0.22038028
000290 88 2d 9f 3e 77 06 db 3e 80 30 30 3e 86 e8 1f 3e
       0.31089425 0.4277837 0.17206001 0.15616044
0002a0 d3 de 66 bd 25 ed 05 be 0a 96 08 3f ed f2 a7 be
       -0.056364845 -0.13078745 0.5335394 -0.32802525
0002b0 34 cd 7b 3e 4f d2 5b 3f ce a4 9d 3e d9 e1 1a 3f
       0.24589998 0.8586778 0.30789798 0.60500866
0002c0 68 b5 e7 3d f3 c9 0b be ed 8d 3c 3f 0f 34 3d be
       0.11313897 -0.13651256 0.7365406 -0.1847689
0002d0 00 d3 13 3f 15 e1 8e be 5d 45 c5 3f 17 6f fc be
       0.57743835 -0.279061 1.5411793 -0.49303505
0002e0 7a bb cd 3e 70 71 f1 be 9e 4d 0b 3e 12 43 02 3f
       0.40182096 -0.47156858 0.13603827 0.5088359
0002f0 54 52 3b 3e 98 e5 ab 3d e9 e1 34 be d1 31 60 3f
       0.18293124 0.08393401 -0.17664303 0.87576014
000300 94 2d ff 3e 6a b8 1f 3f 18 b4 4d 3e c1 bd d3 bb
       0.4983946 0.6239077 0.20088232 -0.0064618294
000310 6a 27 20 be b4 f6 1d be ec 19 b7 3e 6f 71 d9 be
       -0.15640035 -0.15426141 0.35761964 -0.42469355
000320 54 c5 f1 3c c6 ff 60 3e 3c e5 d4 bc 78 19 33 be
       0.029513039 0.2197257 -0.025988214 -0.17490184
000330 1f 03 2a bf 43 25 49 be dd 6e 06 bd c2 c9 b9 be
       -0.6641101 -0.1964312 -0.03282057 -0.36286741
000340 30 0f 55 bc 86 02 50 bf 91 18 82 3e 06 f9 b5 3f
       -0.013004109 -0.8125385 0.25409368 1.4216621
000350 ad a8 35 3e 55 29 44 bf c9 bb a0 bd e8 41 86 3e
       0.17740126 -0.7662557 -0.07848317 0.26222157
000360 86 f3 4e 3f d8 4c cb be e3 35 7d 3e 1b 4f 5c 3e
       0.8084034 -0.39707065 0.24727587 0.21514551
000370 92 11 0f bf 5b 02 ac be 4a 40 f8 be 88 2b 6f 3e
       -0.55886185 -0.33595547 -0.4848655 0.2335645
000380 5d f1 49 3f 0b a2 38 bd 2c 99 b4 be 63 cc dd 3e
       0.78883916 -0.04507641 -0.3527311 0.43319997
000390 d5 f1 34 3f 2e 88 5f be 6d ba b4 3e 5c b5 d8 3e
       0.70681506 -0.21829292 0.35298482 0.42325866
0003a0 90 a7 3f 3d be 99 3a 3f 34 13 85 be 68 9b 5d be
       0.04679066 0.7289084 -0.25991213 -0.21641314
0003b0 e8 49 25 3e 95 48 a2 be d0 1a 0d 3e e6 f3 42 bf
       0.16141474 -0.31696 0.1377976 -0.7615341
0003c0 23 2e 44 be 78 8f df bf c8 6f e0 3f a4 98 e7 be
       -0.19158225 -1.7465658 1.7534113 -0.45233643
0003d0 53 41 fd 3e 97 f0 2d 3f 96 2d b4 be 18 4e 83 3f
       0.494639 0.67945236 -0.3519103 1.0258207
0003e0 34 9d 54 3d 22 f0 8e be 1c a4 e1 3c 7a 2d ba 3f
       0.051907733 -0.27917582 0.027544074 1.4545128
0003f0 62 56 a3 bd af e7 31 bf 0c ad f8 bd 85 4e f4 be
       -0.079754606 -0.69494146 -0.12142381 -0.47716156

fc2.bias f4 [50]
000000 71 26 14 3f 31 7a 91 be 97 4e ad 3d e8 9a 8c be
       0.57871157 -0.28413537 0.084622554 -0.27461934
000010 c6 f4 e0 be 25 94 52 3d 7f 3a 48 be f0 b4 6e bd
       -0.43936747 0.051410813 -0.19553564 -0.058278024
000020 8f c8 bd 3e e3 f9 9e 3e f5 d5 a1 3e e4 eb 2e 3e
       0.37067077 0.31050023 0.3160855 0.17082173
000030 50 af ae be 1a 45 c8 be d3 de da 3d a8 87 90 3e
       -0.34118128 -0.3911522 0.106870316 0.28228498
000040 d6 be d5 be da d7 e4 3e 32 8e da 3d aa 55 97 bc
       -0.4174716 0.44695932 0.10671653 -0.018473465
000050 f3 e1 84 3e 2e db 22 bf 03 61 eb bc 51 d2 1a be
       0.25953636 -0.6361569 -0.028732782 -0.15119292
000060 d4 2c 21 3f e8 e3 10 be 47 85 69 be 51 09 82 be
       0.6295903 -0.1414944 -0.22804748 -0.25397733
000070 17 a2 94 3e 1f c1 85 bf 04 87 bc 3d 38 ad 29 bf
       0.29029915 -1.0449561 0.0920544 -0.66279936
000080 68 da 1e 3e 41 e5 6a 3e 02 4f 53 be 90 b3 75 be
       0.15513003 0.22939016 -0.20635608 -0.23994279
000090 02 a9 91 bd 67 5c 2f bf f5 cd 75 3e a3 02 cc 3e
       -0.07112314 -0.6850037 0.24004348 0.39845762
0000a0 78 c8 0f 3f 6d 31 a2 be 18 8e d5 3e 28 ae c7 bd
       0.56165266 -0.31678334 0.4170997 -0.097500145
0000b0 95 b4 00 3f 12 df 99 3e 42 56 16 bf 3e 5b eb 3d
       0.50275546 0.30053002 -0.5872537 0.114920124
0000c0 c7 eb 00 3d a3 75 f0 bd
       0.031474855 -0.117411874

out.weight f4 [4, 50]
000000 2e a8 b2 3d 61 0e 44 3d 8f 1f 97 3e 40 aa 60 be
       0.08723484 0.047865275 0.29516265 -0.21939945
000010 37 67 10 3f 9b 83 87 bf 0c dc 95 bf 03 61 42 be
       0.56407493 -1.0587038 -1.1707778 -0.1898232
000020 3d f3 9a 3e 43 31 c1 3e 3e 04 b3 3f 6b 89 4e bf
       0.302637 0.37732896 1.398567 -0.80678433
000030 b7 9b 0a bf e2 a3 2c 3f 31 60 ba bf 09 35 47 bf
       -0.5414385 0.67437565 -1.4560605 -0.778153
000040 d7 a3 71 3f 7c 3e 3b 3f b6 fa b4 3c cb cc cd bd
       0.94390625 0.7314222 0.022092205 -0.10048827
000050 2f 7a c8 ba 1e be fc 3e 79 7d 0f bf 14 89 89 3f
       -0.0015295203 0.49363798 -0.5605083 1.0744958
000060 47 34 17 3f b6 01 3d be 35 3e cf bd d3 6f ee 3e
       0.59064144 -0.18457684 -0.10119287 0.4656969
000070 9e e6 c5 be 0f 27 8c 3f d3 06 3f 3f a0 eb 4a 3f
       -0.3865251 1.094942 0.7461979 0.79265785
000080 a5 19 cf bf 93 9b c3 3c f6 2d 9e 3f 04 36 8d 40
       -1.6179701 0.023877895 1.2357776 4.4128437
000090 b3 a5 1c 3f 30 0f 8e 3f 5c 13 39 3e 91 5f 2e 3f
       0.61190337 1.1098385 0.18073791 0.6811457
0000a0 05 3f 42 3f ea 1f 91 be d9 3b b9 3f 0d 49 f4 bd
       0.7587741 -0.2834466 1.4471389 -0.11927996
0000b0 70 33 ed 3e 51 19 a7 3e ae 7b 6f bf c3 86 08 3e
       0.46328306 0.32636502 -0.93548095 0.13332658
0000c0 a5 e6 cd bd d2 b0 96 be 9a 21 30 bf 98 34 1d bf
       -0.100537576 -0.29431778 -0.6880127 -0.61408377
0000d0 fe 2e 37 3f 1b bb 40 3f ef aa 31 40 f4 2e 2a bf
       0.7155608 0.752855 2.776058 -0.66477895
0000e0 db 0e 18 3e 0b b6 85 be 6b 32 33 bf 47 bc 75 be
       0.14849417 -0.2611545 -0.69998807 -0.23997603
0000f0 45 9a 66 3e b5 d5 87 bf a8 45 c3 bd 35 34 ed be
       0.22519787 -1.0612093 -0.0953477 -0.46328893
000100 b1 f8 bb 3f de a9 44 bf a5 04 db 3e 1b d9 54 3f
       1.468527 -0.76821697 0.4277698 0.83143777
000110 30 21 c5 3d 09 a7 8d 3f 96 0b b9 be 12 b8 3f 3f
       0.09625471 1.10666 -0.36141652 0.74890244
000120 e0 55 bc 3f e5 c3 49 40 2a 2c 22 3f 79 2a e5 bd
       1.4713707 3.1525815 0.6334864 -0.11189742
000130 2f ff a0 be c5 b8 8a bf 1e cf 0b bf 31 75 a6 3e
       -0.3144469 -1.0837637 -0.5461291 0.32511285
000140 35 16 35 be 87 2d f7 be c6 fd 08 bf 36 e2 5b 3f
       -0.17684253 -0.48276922 -0.5351223 0.85892045
000150 9e 7e 81 3f f9 0b 99 3f 93 88 8a bf 21 77 c8 bf
       1.0116765 1.1956779 -1.0822929 -1.5661355
000160 b9 25 58 be 63 68 1b 3f 7d 9e 64 3e ff 40 7d 3f
       -0.2110814 0.60706156 0.22326083 0.989273
000170 af 73 d1 3e 90 d4 87 3f 3c bd 6b 3e bd 60 d8 bc
       0.40908572 1.0611744 0.23021406 -0.026413316
000180 df bc 5a bf 69 ad fe bd d4 5d 5d bd a4 d0 70 3f
       -0.85444444 -0.12435419 -0.05404456 0.9406836
000190 58 68 fc 3c 5c 7e 94 bf 7c 3d 82 3f 6a f0 6e 3e
       0.030811474 -1.1601062 1.0175014 0.23333898
0001a0 b2 d4 be bd f3 c2 ff be 7b 9c 15 be b5 8c 99 be
       -0.09317912 -0.49953422 -0.14610474 -0.29990163
0001b0 32 57 12 3d e7 1e 62 3f b0 b2 46 be 94 c2 a1 bf
       0.035727687 0.88328403 -0.19404101 -1.2637506
0001c0 31 e5 0f 40 61 38 bc be b4 cc 60 bf 49 d9 a9 bc
       2.2483637 -0.36761764 -0.8781235 -0.020733492
0001d0 a5 b6 3a 40 2d fa d6 bc 0e aa 01 be 22 58 bc 3f
       2.9173977 -0.02624234 -0.12662527 1.4714396
0001e0 e7 d1 e5 be 40 53 1a c0 46 44 ea bf ab c6 6d 3e
       -0.44886705 -2.4113312 -1.8302085 0.23220317
0001f0 cc a1 b9 be 2c a5 c0 bd e7 5f ca 3e 33 85 46 3e
       -0.36256254 -0.09406504 0.39526293 0.19386749
000200 12 6b 50 3f 94 8b 6a 3f 7a bc 56 bf 29 a4 36 bf
       0.81413376 0.9161923 -0.8388134 -0.7134424
000210 55 bd 6a bf 27 c8 a9 be b4 80 49 be b6 42 3f 3f
       -0.9169515 -0.33160517 -0.19678003 0.7471117
000220 13 17 55 bf 0f ef 86 bd 7d 7c 4f 3f 90 53 96 bf
       -0.83238333 -0.065885656 0.8104933 -1.1744251
000230 ed 03 38 3f a6 29 88 bf 9c 04 f8 3f da 6d c3 3f
       0.7188099 -1.063771 1.9376407 1.5267899
000240 29 b7 a0 bf 10 31 98 bf 26 eb 99 3f 8f d2 88 bf
       -1.2555896 -1.1889973 1.2024887 -1.0689257
000250 c6 ca 78 3f d6 ff 8a 3e 3c c6 be be 16 6b e4 bf
       0.9718441 0.27148312 -0.37260616 -1.784518
000260 ae 70 aa 3f 55 49 7e bd 09 c2 08 3f 50 a1 58 be
       1.3315637 -0.062081654 0.53421074 -0.21155286
000270 8c 68 3f bd e9 0f 83 be 4c a2 38 bf e6 6b de be
       -0.046730563 -0.25598076 -0.72122645 -0.43441695
000280 16 5b 4c 3f 16 84 20 3e 3e d3 2f 3e 1d bd ed 3e
       0.79826486 0.15675387 0.17170426 0.46433344
000290 2a 87 19 bf 3f cf 27 be 5f fc ba 3f a4 b9 ce 3e
       -0.5997187 -0.16387652 1.4608268 0.40376008
0002a0 b5 76 3f 3f dd ae 0f bf d9 ea ad 3f 62 4c 00 3f
       0.7479051 -0.56126195 1.3587295 0.5011655
0002b0 76 a5 20 3c ef 54 50 3f 58 7f 29 bf e7 19 26 3f
       0.009805074 0.813796 -0.66209936 0.64883274
0002c0 6e e5 1e c0 77 75 bf 3e 7d 25 0c be 9f 9d b4 3e
       -2.4827533 0.37394306 -0.13686176 0.35276505
0002d0 f7 0e c7 3e c4 2e 98 3f e0 0b 02 3e af d8 31 c0
       0.38878605 1.1889272 0.12699842 -2.7788503
0002e0 42 82 12 be 35 9a 73 bf c4 a9 2b be 00 70 d8 3e
       -0.14307502 -0.95157176 -0.16763979 0.4227295
0002f0 e3 11 0b bf 90 e9 03 be d4 db d2 be d2 56 56 be
       -0.5432417 -0.12882066 -0.4118334 -0.20931557
000300 dc c0 8f bf a6 87 51 3d 64 04 ea 3f 5a 64 8d bf
       -1.1230731 0.051154755 1.828259 -1.104625
000310 f6 be 37 be 53 d5 6d 3f 9c 68 53 bf 67 78 35 3c
       -0.1794394 0.9290363 -0.82581496 0.011076069

out.bias f4 [4]
000000 de 24 a9 3e 68 02 f2 3b 0e 42 ed 3e 81 56 89 3e
       0.3303594 0.0073855408 0.46339458 0.2682381

fc1.weight f4 [100, 7]
000000 25 7b bc be 05 38 a6 3e b2 74 d8 be 2c 9d d5 3e
       -0.36812702 0.32464615 -0.4227653 0.41721475
000010 4e a6 62 be 24 af 26 bf 5e b9 47 3e 08 d7 14 3d
       -0.22133753 -0.65110993 0.19504306 0.036337882
000020 2e cb 3e bf f0 9e 54 bf 1e 5c eb 3e 65 5b a5 3b
       -0.7452878 -0.8305502 0.45968717 0.0050462955
000030 3e a2 89 3d ac a9 0b bd 7d 62 e8 bb 55 e4 32 3e
       0.06720398 -0.03409736 -0.007091819 0.17469914
000040 3d eb 65 bb bb 4e 0b bf a2 11 c1 3d 46 2f f9 bd
       -0.003508284 -0.5441701 0.09427191 -0.1216722
000050 3c d4 ad bc b9 53 ed 3f 4c b7 17 40 b8 58 a8 bd
       -0.021219365 1.8541175 2.3705626 -0.08220047
000060 1b e6 9d be 63 9a 57 bf b7 db 4e 3e 2b 05 57 3d
       -0.3083962 -0.8421995 0.20201002 0.052495163
000070 30 1a 6b 3f a8 54 1e 40 c2 af bc be 42 ef c0 be
       0.91836834 2.473917 -0.36852843 -0.3768254
000080 46 fe fc be e7 bc 16 3e 45 2c ad 3d 81 4e ee 3f
       -0.49412745 0.14720498 0.08455709 1.8617707
000090 f0 bd d7 3d f4 8d 2a bf b2 ac cf be ee 84 7b bf
       0.105342746 -0.66622853 -0.40561444 -0.9824971
0000a0 a9 ca 34 3f e4 d3 1c be 84 62 25 3e 60 83 14 3f
       0.70621735 -0.15315205 0.16150862 0.5801296
0000b0 8b f8 89 bf 10 c6 ab be d0 55 2c bf c2 6e 72 bd
       -1.0778974 -0.33549547 -0.6731844 -0.059187658
0000c0 ed c2 a0 3e 1f f8 0c c0 b1 8f a6 bf 1e b4 8f bf
       0.31398717 -2.202644 -1.3012601 -1.1226842
0000d0 c5 85 b5 3c b7 4e 19 be b8 88 60 3e 66 94 8a be
       0.022158513 -0.14971434 0.21927154 -0.27066344
0000e0 6d 5f 3b 3e 57 cd 93 3e c3 06 94 be bb 29 4d bf
       0.18298121 0.288676 -0.2891141 -0.801418
0000f0 d9 4e bf be ed 42 2d 3e 92 3d 48 be 1a 76 59 c0
       -0.37364843 0.16920061 -0.19554737 -3.3978333
000100 1a 04 da 3f e1 8e ca 3c 19 10 ad bb b8 0f 35 bd
       1.7032502 0.024726333 -0.00528146 -0.044204444
000110 d0 05 17 bf 25 35 89 bd aa 02 b4 3e ef 35 84 3f
       -0.58993244 -0.0669959 0.35158283 1.0328959
000120 6b 49 55 bf bb ee 41 3e 7d 61 bd be 25 52 e2 3e
       -0.8331515 0.18938725 -0.3698844 0.44203296
000130 10 7e de 3b e8 bb 2b bf a6 11 0c c0 c3 7e 40 be
       0.00678993 -0.670836 -2.1885772 -0.18798356
000140 15 fc ed be 5e ef 02 3e f5 5f 3a bf 9e fc 05 3e
       -0.46481386 0.12786624 -0.7280267 0.13084647
000150 1e 9b 0f 3f 36 ee 0d bf dc 51 a4 3e 2c 04 13 bf
       0.56096065 -0.55441606 0.32093704 -0.5742824
000160 b8 59 d3 be 04 1f ea 3d 0c a3 6a 3d 5c 92 13 3f
       -0.41279387 0.11431697 0.0572844 0.576452
000170 68 4c 2f 3f 4b a6 5e bf b5 e5 ab be 60 5e 16 bf
       0.6847596 -0.8697249 -0.3357369 -0.58737755
000180 55 0f 00 be bc 4a 14 3d 61 f7 62 be 68 1a 2f bf
       -0.12505849 0.036204085 -0.2216468 -0.6839967
000190 7e 00 b0 bf ee c0 0a be a9 ec a6 be 85 7a 7a 3e
       -1.375015 -0.1355016 -0.32602432 0.244608
0001a0 94 c3 2c be 2a fc 8b 3f ee 3e cf 3f 65 db e1 bd
       -0.16871482 1.0936329 1.619108 -0.11028174
0001b0 28 d6 17 bd 2a 0b fd be 89 01 3c bf 0f 8f 97 3e
       -0.03706947 -0.4942258 -0.7343984 0.29601333
0001c0 83 53 37 3e 2e eb 43 c0 c3 8a 9e 3e 64 db a6 bd
       0.17902951 -3.0612292 0.30965242 -0.08147314
0001d0 17 f8 98 3d e6 9c 49 3e e2 fa d2 3d 3a 35 f0 3f
       0.074691944 0.19688758 0.10301758 1.8766243
0001e0 82 48 88 bd d5 b6 ab 3d 6c 21 a4 bd 49 43 f0 be
       -0.06654455 0.08384482 -0.08014187 -0.46926335
0001f0 e2 02 38 bf 42 76 b7 3d b1 27 6f c0 12 7f bb bf
       -0.718794 0.08958103 -3.7367976 -1.4648154
000200 58 17 29 bf 54 d5 a8 be 99 fd 65 3e 4b 82 4b bf
       -0.66051245 -0.32975256 0.22460021 -0.79495686
000210 0d 25 bf bd 2c ba 96 3f 3c 84 59 3f 63 55 56 bf
       -0.09333239 1.1775565 0.849674 -0.8372404
000220 e2 12 06 bf 62 ab 37 bf af 2c 51 3f 76 c1 b0 be
       -0.5237256 -0.71745884 0.81708807 -0.345226
000230 8c 37 ad 3e 43 19 5b c0 94 e7 11 3f 21 73 b1 bd
       0.3383144 -3.4234169 0.56993985 -0.08664537
000240 35 a3 94 3e 05 05 ba 3e 57 38 78 3e 27 77 90 c0
       0.29030767 0.36331955 0.24240242 -4.514545
000250 8f 79 9a bd de 73 8e 3e 9c b4 a4 3d 11 92 d9 3e
       -0.07542717 0.27822775 0.08042261 0.42494252
000260 0b 3a a7 be f8 ae 77 bd c1 ec b6 be 43 d4 11 3e
       -0.3266147 -0.060469598 -0.35727504 0.14241128
000270 3d b8 21 bf 45 a8 e9 bd 50 3b 66 bf 6b f4 5e bf
       -0.6317175 -0.11409048 -0.89934254 -0.870917
000280 0f af 1a be 7b 59 04 3e 92 74 83 be a4 b5 a0 be
       -0.15105842 0.12924759 -0.25674874 -0.3138858
000290 96 a1 fa be 11 73 24 bf ab ae 9a 3e e2 d1 7b 3d
       -0.48951405 -0.6423808 0.30211386 0.061479457
0002a0 31 e7 a6 3e 9a 62 83 bf 9f e3 9e 3d 16 5b f3 be
       0.3259826 -1.0264466 0.07758259 -0.4753043
0002b0 bd 1c 64 be 61 93 a2 3e aa b4 c0 3e 89 90 60 3f
       -0.22276588 0.31753066 0.37637836 0.87720543
0002c0 15 e5 f5 bf 9c 80 d7 be 7e c9 34 bf 10 36 81 be
       -1.9210535 -0.4209031 -0.7061995 -0.2523656
0002d0 54 59 2c 3f ca c9 7d be 35 64 36 3f 25 df 1b bf
       0.67323804 -0.24784008 0.71246654 -0.60887367
0002e0 2e 06 4d 3f 40 7c c7 be 73 b8 31 3d 73 1b cc 3e
       0.80087554 -0.38961983 0.043388795 0.39864692
0002f0 a9 85 4a 3c ea a0 7c 3f 81 7b 73 3f 26 18 0d bf
       0.012360969 0.98683035 0.95110327 -0.5511497
000300 1a 84 33 be ab 56 98 bf 29 7e 2e 3e e9 57 ab bc
       -0.17530861 -1.1901449 0.17040314 -0.020915942
000310 1b 51 88 c0 ca 86 44 be 7c 44 54 3e f7 29 dc be
       -4.2599006 -0.19192043 0.2072925 -0.43000767
000320 7b 81 8e 3e ce 6c 8b bf af 74 c5 3d b1 7a 36 3e
       0.2783316 -1.089258 0.09641396 0.1782024
000330 1d 2c e3 3e 11 b1 22 be ff d2 01 be 3c bb 6d 3d
       0.44369593 -0.15887858 -0.12678145 0.05803989
000340 88 20 a2 3e a6 f8 8b 3e f7 68 bd 3d 50 a3 08 3f
       0.31665444 0.2733814 0.09248536 0.53374195
000350 3f 63 7a 3e 92 b1 7b be fc 5a fa 3e 85 65 6d bf
       0.24451922 -0.24579456 0.4889754 -0.9273303
000360 17 2e 20 be 2c 87 fe bf d3 55 6b bf 73 72 b2 be
       -0.15642582 -1.9885001 -0.9192783 -0.34852943
000370 a4 24 6f 3d ce 56 26 3e 68 aa 2f be 9c e7 67 3c
       0.058384553 0.16244051 -0.17154849 0.014154341
000380 03 ee 94 3e f9 de f4 3f 0b 63 8b be 63 22 92 3d
       0.2908784 1.9130546 -0.27224 0.07135465
000390 60 1e a9 be 08 59 23 be 16 db 7f bd 0f 13 9b bf
       -0.33030987 -0.15951931 -0.062464796 -1.2115191
0003a0 ad 66 a6 be 53 0a 83 bf f0 15 c1 be 7d 5f 35 be
       -0.3250021 -1.0237526 -0.3771205 -0.17712207
0003b0 09 dd 3f bf d6 71 83 bd 11 e9 3a 3f b6 60 bd bf
       -0.7494665 -0.06418197 0.7301188 -1.4795139
0003c0 0c e8 eb be a3 c6 99 be fb 86 0b 3e 84 95 50 3f
       -0.46075475 -0.3003436 0.1362571 0.8147814
0003d0 2f c5 42 3e 32 fe f7 3d 0a 6f 89 bf b0 87 9f bf
       0.19020532 0.12109031 -1.0737011 -1.2463284
0003e0 02 1d 09 bb 99 9d 8c be 8c 25 e8 3e e2 3e 07 bf
       -0.002092183 -0.27463987 0.45341146 -0.52830327
0003f0 cc ea dd bf 5f 57 13 40 97 0b 93 3d 73 13 42 be
       -1.7337279 2.3022077 0.07179945 -0.18952732

fc1.bias f4 [100]
000000 0f 7c 7d 3e 85 4f bc 3e 10 57 d8 be 34 94 ea bd
       0.24754356 0.3677942 -0.42253923 -0.11454049
000010 0a b2 c2 be 84 37 e8 be 6e 6d 81 be fd b0 f6 3d
       -0.38026458 -0.45354855 -0.252788 0.120454766
000020 82 af 3b bf d1 9b 30 3d 5d 26 a5 3e f4 ec 96 be
       -0.7331468 0.043117348 0.3225583 -0.29477656
000030 04 5e 13 bf 52 d7 be be af 7f 58 bd 3c 5c a8 3c
       -0.5756533 -0.3727365 -0.052856144 0.020551793
000040 63 e6 04 bd 5d b9 72 be f8 7c 23 be c7 d7 11 bf
       -0.032446276 -0.23703523 -0.1596564 -0.56969875
000050 f9 06 d9 bd f8 b0 f7 3c 5c 31 1f be e9 49 e5 be
       -0.10597033 0.030235752 -0.15546173 -0.4478295
000060 fe 67 be be f1 1e 25 bf 03 ea a7 be 8c 7d 11 be
       -0.37188715 -0.6450034 -0.32795724 -0.14208049
000070 47 f3 9b be eb 9d 49 bd d6 17 1c be 24 ee 80 3e
       -0.30459043 -0.049222868 -0.15243468 0.25181687
000080 17 e8 da 3d bc 6b 9b be e9 30 be be bc 17 10 3d
       0.10688799 -0.30355632 -0.3714669 0.035178885
000090 84 7a 21 3c a2 34 f7 bd fe 01 2a 3e 65 2b 08 be
       0.00985587 -0.12070586 0.16602322 -0.13297804
0000a0 3a 56 b7 bd e7 63 4f be 2f 86 00 3e 13 b0 90 be
       -0.08951993 -0.20252953 0.12551187 -0.28259334
0000b0 c6 02 b6 be 8a 8f 0e 3d 91 37 5e 3e 99 ba 6c be
       -0.3554899 0.03480486 0.21700884 -0.23118056
0000c0 8c 90 d2 be 06 c7 95 be ca 4f b0 3e 59 d2 e7 bd
       -0.41125906 -0.29253405 0.34435874 -0.113194175
0000d0 58 12 39 be 54 f8 9e bc 0c d4 a6 3e 9c 08 eb 3d
       -0.18073404 -0.019405521 0.32583654 0.114762515
0000e0 69 88 fe be 1d a7 b4 be 6a dd 65 3d 01 b4 34 bf
       -0.49713448 -0.35283747 0.05611936 -0.70587164
0000f0 24 81 ef be 46 74 ba be 8c d6 30 be 0f eb 00 bf
       -0.46778214 -0.36416835 -0.17269343 -0.5035867
000100 c9 bd e6 be 21 b7 59 bd 46 a5 36 bf 27 fd 04 bf
       -0.4506667 -0.05315316 -0.7134594 -0.5194878
000110 72 d5 c3 be 73 7f c9 be 52 87 ea be d3 63 0b bf
       -0.38248783 -0.3935505 -0.45806366 -0.54449195
000120 09 d0 3d 3e 1e 3c b1 be 15 a7 37 be fc 9d 1c be
       0.1853639 -0.34616178 -0.1793483 -0.15294641
000130 2c 36 93 be 83 a7 cd be 42 0f 39 3e 65 14 25 bf
       -0.28752267 -0.40166864 0.18072227 -0.64484245
000140 90 db 9d be c3 bb 37 be 0a a8 33 3e 8b a6 b9 be
       -0.30831575 -0.17942719 0.1754457 -0.36259875
000150 77 f3 c9 be 63 50 c2 be 9a c5 bf be eb 22 81 be
       -0.3944356 -0.37951955 -0.37455446 -0.25221953
000160 0b 15 98 3d 18 d6 9d bc 20 56 27 be 08 07 20 3e
       0.07425889 -0.019267127 -0.16341448 0.15627682
000170 8f 58 05 bf 83 da b2 3e 8d 5a b4 be 3a 03 49 be
       -0.52088255 0.34932336 -0.35225335 -0.19630137
000180 33 33 dd be 7e e2 cd be c1 8f 79 be 8c 38 d0 be
       -0.43203124 -0.40211862 -0.24371244 -0.40668142

fc2.weight f4 [50, 100]
000000 85 cf 24 be 4c 48 e8 3f 7c d4 d5 be 01 f5 fe 3e
       -0.16094787 1.8147063 -0.41763675 0.49796298
000010 56 ab 08 3f f6 ae 0a 3e 2c 33 a0 3e 7d b8 a2 3f
       0.5338644 0.13543305 0.3128904 1.2712551
000020 93 00 0e be 3e fa 1b bf a7 e0 0f 3f 9f 53 04 bf
       -0.13867407 -0.60928714 0.5620217 -0.51690096
000030 d2 5a c0 bf d7 dc 9f 3e 63 4a 43 be ee 41 42 bf
       -1.5027716 0.31223175 -0.19071345 -0.7588185
000040 84 87 63 3f 60 16 22 3f ab 38 04 3f 00 f2 99 3e
       0.88878655 0.6331539 0.5164897 0.30067444
000050 f7 6f 46 3f 08 3b 03 3f 3f a1 82 bf ad 2f 2b be
       0.77514595 0.5126195 -1.0205458 -0.16717406
000060 e7 84 97 bf 43 c1 10 3e cf e3 98 bf 73 ab 0a 3d
       -1.1837434 0.14136223 -1.1944522 0.033854913
000070 1d a9 63 bd ff 3d 05 3f fa c0 d6 3e d9 fd 96 bd
       -0.0555812 0.52047724 0.41944104 -0.07372636
000080 f3 9d c6 bd de 81 0e bf 50 05 d6 be 58 7c ed be
       -0.09698095 -0.5566691 -0.41800928 -0.4638393
000090 ea 31 c2 bd ef 16 85 bd 58 c8 d3 3d e3 c7 6a be
       -0.094821766 -0.06498515 0.10340947 -0.22927813
0000a0 e4 fe d9 3e 5f a2 3a 3e 1e 66 b8 be 02 75 32 3f
       0.4257728 0.18226002 -0.3601541 0.6970979
0000b0 17 87 8d 3f 96 49 d1 3e 63 bc d9 3e b6 19 0d 3f
       1.1056851 0.40876454 0.4252654 0.55117357
0000c0 12 5e 0d bf 69 9d 11 c0 68 cd e6 3c d7 ee dc be
       -0.55221665 -2.2752326 0.028174117 -0.4315097
0000d0 b5 d5 ba bd ea b2 39 bf 8f e9 8a 3e 7a 76 7b 3e
       -0.09122793 -0.72538626 0.27131316 0.24556914
0000e0 93 ed 4c bf 34 48 ff 3e d8 a6 89 3e 83 0f 05 3e
       -0.8005001 0.49859774 0.26885104 0.12994199
0000f0 85 ad 25 be 1b 43 9b be ec 5b 4b be 7d 7f f8 bd
       -0.16179474 -0.30324635 -0.19859284 -0.121336915
000100 4c a4 af bf e0 e4 a2 be 24 7a d3 bd a6 aa ff bd
       -1.3722014 -0.31815243 -0.10326031 -0.124837205
000110 a7 ed d1 bf 38 c5 18 3e 23 56 d9 3d 73 24 d4 bf
       -1.6400651 0.14918983 0.106121324 -1.6573623
000120 69 20 2e 3f 66 cc 80 bf 3e 85 cf bc 34 04 29 be
       0.68018204 -1.0062377 -0.02533209 -0.1650551
000130 8b a1 8b be d7 94 d2 be 63 9e 2f bf cf cd 98 3e
       -0.27271685 -0.4112918 -0.68601054 0.2984452
000140 a3 56 5b bf 35 6f f0 be 64 73 ea be 04 6f 11 c0
       -0.8567907 -0.46959844 -0.4579116 -2.2724009
000150 91 d9 ee be 8f 7f 8b bf 2d 94 2d bf 0f 96 1a bf
       -0.46650365 -1.0898303 -0.67804223 -0.6038522
000160 3b 49 4e bf 28 d5 53 bf da e6 87 3f 6b 24 57 3f
       -0.8058049 -0.82747126 1.0617325 0.84039944
000170 96 ca 08 3f 76 f4 3f bf 1f 35 47 bf 0c a9 4e 3f
       0.5343412 -0.7498239 -0.7781543 0.80726695
000180 23 e0 c2 bf bd 02 79 3e 4b c4 d9 be a8 ed 11 bf
       -1.5224651 0.24317451 -0.42532572 -0.5700326
000190 bf eb 19 bf 10 dc 1f be 75 e3 e2 3d 38 f1 59 bd
       -0.60125345 -0.15611291 0.1107854 -0.05320856
0001a0 53 6c 94 bc 0f 7b 52 be af 4b 10 bf 3d 57 ad 3f
       -0.01811806 -0.20554756 -0.56365484 1.3542248
0001b0 9d 5d ba 3e 15 c1 62 3f e6 05 b6 3e b7 74 db 3f
       0.36399546 0.8857587 0.35551375 1.7144994
0001c0 da ab bc bb 35 c3 77 be 0e d7 8b be e9 b2 a0 3e
       -0.005757791 -0.2419556 -0.2731251 0.31386498
0001d0 30 26 10 bf 24 52 e2 3c fe c5 3f 3f 88 16 93 3d
       -0.5630827 0.027627058 0.7491149 0.07182032
0001e0 84 6d 9f be 35 b2 25 bf 7e 4b 70 3e 08 3b 68 be
       -0.3113824 -0.6472505 0.23466298 -0.22678769
0001f0 a8 b2 df 3c 63 0d c9 3e a7 eb 49 be 28 cc 61 bf
       0.02730687 0.39268026 -0.197188 -0.8820214
000200 9c 77 a5 be 56 b3 b6 3e 30 bd 6d 3e 26 4c fc be
       -0.32317817 0.35683697 0.232167 -0.49276847
000210 d2 18 0b bc b2 1e 7d 3e 7f 01 cd 3e 9b 7b 5c bd
       -0.008489804 0.2471874 0.40040204 -0.053828817
000220 97 42 0e 3f b1 4f 20 3f d4 b7 2f 3d 73 a5 cb be
       0.5557036 0.626216 0.04289992 -0.39774665
000230 49 71 e0 3d 79 fa 3e 3e 07 c8 84 3e 02 94 4a 3f
       0.109591074 0.18650235 0.2593386 0.7913209
000240 12 d3 46 3f d1 d8 6b bf 20 95 10 3f 46 b0 49 3d
       0.7766582 -0.9212771 0.56477547 0.049240373
000250 76 41 7d 3f 0a fc 3e be bf e7 09 3f fc 17 d1 3e
       0.9892801 -0.18650833 0.5386924 0.4083861
000260 15 04 35 3e c0 0f 94 3f 15 cc b5 bf 1d e1 e2 3e
       0.17677338 1.1567307 -1.4202906 0.44312373
000270 cc 5e 6c 3d da 3e ca 3e 57 a4 05 bf 32 76 7d 3e
       0.057707593 0.39501077 -0.5220389 0.24752119
000280 a1 0e 75 bf 75 06 b2 be bb b1 c7 bb 59 ab 61 3e
       -0.95725447 -0.3477055 -0.006094185 0.2203802
000290 74 2d 9f 3e 2c 06 db 3e ed 30 30 3e 90 e8 1f 3e
       0.31089365 0.42778146 0.17206164 0.1561606
0002a0 99 de 66 bd 62 ed 05 be 3e 96 08 3f c5 f2 a7 be
       -0.05636463 -0.13078836 0.5335425 -0.32802406
0002b0 95 cd 7b 3e 77 d2 5b 3f 7c a4 9d 3e d8 e1 1a 3f
       0.24590142 0.8586802 0.30789554 0.6050086
0002c0 71 b5 e7 3d 2a ca 0b be 29 8e 3c 3f 2d 34 3d be
       0.11313904 -0.13651338 0.7365442 -0.18476935
0002d0 d0 d2 13 3f cb e0 8e be 07 45 c5 3f ea 6e fc be
       0.5774355 -0.27905878 1.541169 -0.4930337
0002e0 6f bb cd 3e 3e 71 f1 be f2 4d 0b 3e b8 42 02 3f
       0.40182063 -0.4715671 0.13603953 0.50883055
0002f0 26 52 3b 3e b4 e5 ab 3d b6 e1 34 be 9d 31 60 3f
       0.18293056 0.08393422 -0.17664227 0.87575704
000300 a5 2d ff 3e 83 b8 1f 3f 66 b4 4d 3e 1b be d3 bb
       0.49839512 0.6239092 0.20088348 -0.0064618713
000310 12 27 20 be 84 f6 1d be 11 1a b7 3e 18 71 d9 be
       -0.15639904 -0.1542607 0.35762075 -0.42469096
000320 9d c5 f1 3c dc ff 60 3e 08 e5 d4 bc d9 19 33 be
       0.029513175 0.21972603 -0.025988117 -0.17490329
000330 e5 02 2a bf 37 25 49 be af 6e 06 bd f5 c9 b9 be
       -0.66410667 -0.19643103 -0.0328204 -0.36286893
000340 9b 0f 55 bc 40 02 50 bf ea 18 82 3e 65 f9 b5 3f
       -0.013004209 -0.81253433 0.25409633 1.4216734
000350 ed a8 35 3e 0b 29 44 bf 81 bb a0 bd 26 42 86 3e
       0.17740221 -0.76625127 -0.078482635 0.26222342
000360 ee f3 4e 3f 2a 4d cb be 21 36 7d 3e 77 4f 5c 3e
       0.8084096 -0.3970731 0.2472768 0.21514688
000370 3b 11 0f bf 39 02 ac be 36 40 f8 be 98 2b 6f 3e
       -0.55885667 -0.33595446 -0.4848649 0.23356473
000380 82 f1 49 3f 41 a2 38 bd 0e 99 b4 be b7 cc dd 3e
       0.78884137 -0.045076612 -0.3527302 0.43320248
000390 1d f2 34 3f 14 88 5f be a5 ba b4 3e 97 b5 d8 3e
       0.70681936 -0.21829253 0.35298648 0.42326042
0003a0 e9 a7 3f 3d 29 9a 3a 3f 6a 13 85 be 7f 9b 5d be
       0.04679099 0.7289148 -0.25991374 -0.21641348
0003b0 4c 4a 25 3e 61 48 a2 be e2 1a 0d 3e ab f3 42 bf
       0.16141623 -0.31695846 0.13779786 -0.7615306
0003c0 1f 2e 44 be 80 8f df bf 1c 70 e0 3f 89 98 e7 be
       -0.19158219 -1.7465668 1.7534213 -0.45233563
0003d0 75 41 fd 3e 5d f0 2d 3f 3e 2d b4 be 4a 4e 83 3f
       0.49464002 0.6794489 -0.35190767 1.0258267
0003e0 8b 9d 54 3d 07 f0 8e be 50 a4 e1 3c 91 2d ba 3f
       0.051908057 -0.279175 0.02754417 1.4545156
0003f0 4d 56 a3 bd 9a e7 31 bf ce ac f8 bd 72 4e f4 be
       -0.07975445 -0.6949402 -0.12142335 -0.477161

fc2.bias f4 [50]
000000 c8 2c 14 3f 08 7a 91 be a4 4e ad 3d c3 9a 8c be
       0.5788083 -0.28413415 0.08462265 -0.27461824
000010 89 f4 e0 be 3d e2 52 3d e4 46 48 be d9 b4 6e bd
       -0.43936566 0.05148529 -0.19558293 -0.05827794
000020 2b c4 bd 3e 10 f9 9e 3e e4 f1 a1 3e 50 27 2f 3e
       0.37063727 0.31049395 0.3162986 0.1710484
000030 60 af ae be ff 44 c8 be 08 3f da 3d d6 9b 90 3e
       -0.34118176 -0.3911514 0.106565535 0.28243893
000040 9c be d5 be cd d1 e4 3e 0e b8 db 3d bf 14 9b bc
       -0.41746986 0.44691315 0.10728465 -0.018930791
000050 31 13 8a 3e 40 db 22 bf 62 b1 fb bc 38 d2 1a be
       0.26967767 -0.636158 -0.030724231 -0.15119255
000060 31 12 21 3f e2 66 10 be 1d 85 69 be 4b 09 82 be
       0.6291838 -0.14101747 -0.22804685 -0.25397715
000070 60 bc 94 3e db c0 85 bf 21 87 bc 3d 54 ad 29 bf
       0.2904997 -1.044948 0.09205461 -0.662801
000080 a3 da 1e 3e 5e f5 69 3e c8 4e 53 be 7a b3 75 be
       0.15513091 0.22847506 -0.20635521 -0.23994246
000090 e1 8f 91 bd 6d 5c 2f bf c2 b8 75 3e 07 e5 cb 3e
       -0.07107521 -0.68500406 0.23996261 0.39823171
0000a0 7e bf 0f 3f 55 31 a2 be d2 3c d6 3e 93 02 c8 bd
       0.5615157 -0.31678262 0.41843277 -0.09766116
0000b0 3d d4 00 3f 3f df 99 3e 2c 56 16 bf ee 9c ec 3d
       0.5032385 0.30053136 -0.5872524 0.115533695
0000c0 bc c8 fc 3c c0 ed f0 bd
       0.030857436 -0.11764097

out.weight f4 [4, 50]
000000 50 bb b2 3d 7a 0e 44 3d bb 1f 97 3e 50 aa 60 be
       0.08727133 0.04786537 0.29516396 -0.21939969
000010 6b 67 10 3f 34 7a 87 bf 23 bf 95 bf cb 60 42 be
       0.56407803 -1.0584168 -1.1698955 -0.18982236
000020 a5 f0 9a 3e 4a 22 c1 3e 80 fc b2 3f a6 69 4e bf
       0.30261722 0.37721473 1.3983307 -0.80629957
000030 6f 9b 0a bf 8d a3 2c 3f 90 3d ba bf e9 22 47 bf
       -0.5414342 0.6743706 -1.4550037 -0.77787644
000040 05 a4 71 3f 8b 3b 3b 3f 78 29 b8 3c 28 82 cb bd
       0.943909 0.7313773 0.022480711 -0.09936935
000050 b7 6f 40 ba 35 be fc 3e ff 53 0e bf 36 89 89 3f
       -0.00073408656 0.49363866 -0.5559692 1.0744998
000060 40 27 17 3f ed 1c 3c be 27 3e cf bd 18 70 ee 3e
       0.59044266 -0.1837041 -0.101192765 0.46569896
000070 9a f6 c5 be 22 27 8c 3f f9 06 3f 3f 83 eb 4a 3f
       -0.38664705 1.0949442 0.74620014 0.7926561
000080 d2 19 cf bf 48 19 c4 3c 5f 2e 9e 3f 3a 36 8d 40
       -1.6179755 0.023937836 1.2357901 4.4128695
000090 25 87 1c 3f 6a 0f 8e 3f 09 ba 38 3e 72 62 2e 3f
       0.61143714 1.1098454 0.18039717 0.68118966
0000a0 30 42 42 3f cc 1f 91 be 5d d5 b9 3f b0 0c f4 bd
       0.75882244 -0.28344572 1.4518238 -0.119164824
0000b0 ea 58 ed 3e 94 19 a7 3e 10 7c 6f bf a5 33 09 3e
       0.463569 0.32636702 -0.9354868 0.13398607
0000c0 50 6b d1 bd d4 57 96 be 64 3c 30 bf 60 34 1d bf
       -0.10225546 -0.29363883 -0.6884215 -0.6140804
0000d0 c6 2e 37 3f 4e bb 40 3f aa aa 31 40 5d 32 2a bf
       0.71555746 0.75285804 2.7760415 -0.664831
0000e0 54 cd 18 3e 4e b6 85 be bd 55 33 bf 2c 46 76 be
       0.14922076 -0.2611565 -0.700527 -0.24050206
0000f0 be 2e 66 3e e1 d0 87 bf b3 45 c3 bd 15 34 ed be
       0.22478768 -1.061062 -0.095347784 -0.46328798
000100 67 35 bc 3f c6 b3 44 bf 9c 04 db 3e 3f c8 54 3f
       1.4703797 -0.7683681 0.42776954 0.8311805
000110 54 63 c5 3d 77 c6 8d 3f bf 60 bd be ee b7 3f 3f
       0.09638086 1.1076192 -0.36987874 0.7489003
000120 f9 3f bc 3f cf c3 49 40 14 19 22 3f 2b 7c e3 bd
       1.4707023 3.1525762 0.63319516 -0.111076675
000130 78 ff a0 be 1e b9 8a bf fb eb 0b bf 84 75 a6 3e
       -0.31444907 -1.0837743 -0.5465695 0.32511532
000140 71 16 35 be 99 2d f7 be c3 fd 08 bf b2 dc 5b 3f
       -0.17684342 -0.48276976 -0.5351221 0.8588363
000150 02 7f 81 3f ec 0b 99 3f ba e7 8a bf ff 76 c8 bf
       1.0116885 1.1956763 -1.0851967 -1.5661315
000160 62 dd 58 be ec 5b 1b 3f d8 56 64 3e 11 41 7d 3f
       -0.21178201 0.60687137 0.22298753 0.9892741
000170 e6 57 c6 3e 79 d3 87 3f 3e d6 6b 3e d3 60 d8 bc
       0.38738936 1.0611411 0.23030946 -0.026413357
000180 bc bc 5a bf 37 50 fd bd c9 ce 66 bd 5a f2 70 3f
       -0.85444236 -0.123688154 -0.05634955 0.941198
000190 ae cb fe 3c af 7e 94 bf a2 3d 82 3f 9c f0 6e 3e
       0.031102981 -1.1601161 1.0175059 0.23333973
0001a0 96 d4 be bd d7 c2 ff be e3 c0 16 be 70 8c 99 be
       -0.09317891 -0.49953339 -0.14722018 -0.29989958
0001b0 82 a1 18 3d 79 22 62 3f 1b 44 46 be be b2 a1 bf
       0.0372634 0.8833385 -0.19361918 -1.2632673
0001c0 f3 e4 0f 40 9d 38 bc be ca 4a 60 bf 62 86 a8 bc
       2.248349 -0.36761943 -0.8761412 -0.020571891
0001d0 ae b6 3a 40 f9 4a d3 bc 60 d2 01 be c9 4a bc 3f
       2.9174 -0.025792586 -0.12677908 1.4710323
0001e0 9c 02 e4 be 44 53 1a c0 06 95 ea bf f4 c6 6d 3e
       -0.4453324 -2.4113321 -1.8326728 0.23220426
0001f0 18 07 b9 be f2 55 c4 bd 0e 60 ca 3e f3 84 46 3e
       -0.36138225 -0.09586705 0.3952641 0.19386654
000200 13 5f 50 3f 9d 8b 6a 3f 84 bc 56 bf 7d a4 36 bf
       0.8139507 0.9161928 -0.838814 -0.7134474
000210 9c bd 6a bf d3 77 a8 be 02 81 49 be c6 42 3f 3f
       -0.9169557 -0.3290392 -0.19678119 0.74711263
000220 cf 63 54 bf 32 ef 86 bd 5d 7b 4f 3f 3d 45 96 bf
       -0.82964796 -0.06588592 0.8104761 -1.173988
000230 15 43 38 3f 0a 2a 88 bf 55 be f8 3f 25 67 c3 3f
       0.7197736 -1.0637829 1.9433085 1.5265852
000240 01 b7 a0 bf 2b 31 98 bf 5b eb 99 3f 13 91 88 bf
       -1.2555848 -1.1890005 1.202495 -1.0669273
000250 c8 a0 78 3f c3 40 8a 3e 85 a8 be be dd 6a e4 bf
       0.9712033 0.27002534 -0.37237945 -1.7845112
000260 a9 70 aa 3f 85 49 7e bd ff c1 08 3f 45 3b 58 be
       1.3315631 -0.062081832 0.53421015 -0.2111636
000270 53 08 3c bd 2e 10 83 be e6 78 38 bf f2 6e de be
       -0.045906376 -0.25598282 -0.72059476 -0.4344402
000280 9b d0 4c 3f ff 72 21 3e 90 d3 2f 3e 30 bd ed 3e
       0.80005807 0.15766524 0.17170548 0.464334
000290 d9 82 18 bf ec f3 27 be 99 fc ba 3f 95 27 cf 3e
       -0.5957466 -0.16401643 1.4608337 0.40459886
0002a0 49 a5 3f 3f 8a f8 0e bf 14 16 af 3f 46 4c 00 3f
       0.7486158 -0.5584799 1.3678613 0.50116384
0002b0 43 a0 bf 3b ac 54 50 3f 3e 1e 29 bf cb 3c 26 3f
       0.005847962 0.813792 -0.6606177 0.6493651
0002c0 93 e5 1e c0 85 75 bf 3e e6 09 0c be bd 9d b4 3e
       -2.482762 0.37394348 -0.13675651 0.35276595
0002d0 d7 0e c7 3e d3 2e 98 3f 06 0c 02 3e e2 c8 31 c0
       0.3887851 1.188929 0.12699899 -2.777886
0002e0 18 82 12 be 5d 9a 73 bf df de 2e be 0f 70 d8 3e
       -0.1430744 -0.95157415 -0.17077206 0.42272994
0002f0 9a fe 0a bf 14 22 03 be c8 42 d2 be 90 56 56 be
       -0.5429474 -0.12805969 -0.41066575 -0.20931458
000300 4f 00 8e bf 70 2f 56 3d 67 35 ea 3f b6 64 8d bf
       -1.1093844 0.052291334 1.8297547 -1.104636
000310 4d bf 37 be 16 9f 6e 3f 43 f5 52 bf 27 9c 3a 3c
       -0.17944069 0.93211496 -0.8240549 0.011389769

out.bias f4 [4]
000000 8b 26 a9 3e 4b 82 e9 3b ab 56 ed 3e 99 af 89 3e
       0.33037218 0.007126128 0.46355185 0.26891783
